meta_info_def {
  stripped_op_list {
    op {
      name: "Add"
      input_arg {
        name: "x"
        type_attr: "T"
      }
      input_arg {
        name: "y"
        type_attr: "T"
      }
      output_arg {
        name: "z"
        type_attr: "T"
      }
      attr {
        name: "T"
        type: "type"
        allowed_values {
          list {
            type: DT_HALF
            type: DT_FLOAT
            type: DT_DOUBLE
            type: DT_UINT8
            type: DT_INT8
            type: DT_INT16
            type: DT_INT32
            type: DT_INT64
            type: DT_COMPLEX64
            type: DT_COMPLEX128
            type: DT_STRING
          }
        }
      }
    }
    op {
      name: "ApplyGradientDescent"
      input_arg {
        name: "var"
        type_attr: "T"
        is_ref: true
      }
      input_arg {
        name: "alpha"
        type_attr: "T"
      }
      input_arg {
        name: "delta"
        type_attr: "T"
      }
      output_arg {
        name: "out"
        type_attr: "T"
        is_ref: true
      }
      attr {
        name: "T"
        type: "type"
        allowed_values {
          list {
            type: DT_FLOAT
            type: DT_DOUBLE
            type: DT_INT64
            type: DT_INT32
            type: DT_UINT8
            type: DT_UINT16
            type: DT_INT16
            type: DT_INT8
            type: DT_COMPLEX64
            type: DT_COMPLEX128
            type: DT_QINT8
            type: DT_QUINT8
            type: DT_QINT32
            type: DT_HALF
          }
        }
      }
      attr {
        name: "use_locking"
        type: "bool"
        default_value {
          b: false
        }
      }
    }
    op {
      name: "Assign"
      input_arg {
        name: "ref"
        type_attr: "T"
        is_ref: true
      }
      input_arg {
        name: "value"
        type_attr: "T"
      }
      output_arg {
        name: "output_ref"
        type_attr: "T"
        is_ref: true
      }
      attr {
        name: "T"
        type: "type"
      }
      attr {
        name: "validate_shape"
        type: "bool"
        default_value {
          b: true
        }
      }
      attr {
        name: "use_locking"
        type: "bool"
        default_value {
          b: true
        }
      }
      allows_uninitialized_input: true
    }
    op {
      name: "BroadcastGradientArgs"
      input_arg {
        name: "s0"
        type_attr: "T"
      }
      input_arg {
        name: "s1"
        type_attr: "T"
      }
      output_arg {
        name: "r0"
        type_attr: "T"
      }
      output_arg {
        name: "r1"
        type_attr: "T"
      }
      attr {
        name: "T"
        type: "type"
        default_value {
          type: DT_INT32
        }
        allowed_values {
          list {
            type: DT_INT32
            type: DT_INT64
          }
        }
      }
    }
    op {
      name: "Cast"
      input_arg {
        name: "x"
        type_attr: "SrcT"
      }
      output_arg {
        name: "y"
        type_attr: "DstT"
      }
      attr {
        name: "SrcT"
        type: "type"
      }
      attr {
        name: "DstT"
        type: "type"
      }
    }
    op {
      name: "ConcatV2"
      input_arg {
        name: "values"
        type_attr: "T"
        number_attr: "N"
      }
      input_arg {
        name: "axis"
        type_attr: "Tidx"
      }
      output_arg {
        name: "output"
        type_attr: "T"
      }
      attr {
        name: "N"
        type: "int"
        has_minimum: true
        minimum: 2
      }
      attr {
        name: "T"
        type: "type"
      }
      attr {
        name: "Tidx"
        type: "type"
        default_value {
          type: DT_INT32
        }
        allowed_values {
          list {
            type: DT_INT32
            type: DT_INT64
          }
        }
      }
    }
    op {
      name: "Const"
      output_arg {
        name: "output"
        type_attr: "dtype"
      }
      attr {
        name: "value"
        type: "tensor"
      }
      attr {
        name: "dtype"
        type: "type"
      }
    }
    op {
      name: "ExpandDims"
      input_arg {
        name: "input"
        type_attr: "T"
      }
      input_arg {
        name: "dim"
        type_attr: "Tdim"
      }
      output_arg {
        name: "output"
        type_attr: "T"
      }
      attr {
        name: "T"
        type: "type"
      }
      attr {
        name: "Tdim"
        type: "type"
        default_value {
          type: DT_INT32
        }
        allowed_values {
          list {
            type: DT_INT32
            type: DT_INT64
          }
        }
      }
    }
    op {
      name: "Fill"
      input_arg {
        name: "dims"
        type: DT_INT32
      }
      input_arg {
        name: "value"
        type_attr: "T"
      }
      output_arg {
        name: "output"
        type_attr: "T"
      }
      attr {
        name: "T"
        type: "type"
      }
    }
    op {
      name: "FloorDiv"
      input_arg {
        name: "x"
        type_attr: "T"
      }
      input_arg {
        name: "y"
        type_attr: "T"
      }
      output_arg {
        name: "z"
        type_attr: "T"
      }
      attr {
        name: "T"
        type: "type"
        allowed_values {
          list {
            type: DT_HALF
            type: DT_FLOAT
            type: DT_DOUBLE
            type: DT_UINT8
            type: DT_INT8
            type: DT_UINT16
            type: DT_INT16
            type: DT_INT32
            type: DT_INT64
            type: DT_COMPLEX64
            type: DT_COMPLEX128
          }
        }
      }
    }
    op {
      name: "Identity"
      input_arg {
        name: "input"
        type_attr: "T"
      }
      output_arg {
        name: "output"
        type_attr: "T"
      }
      attr {
        name: "T"
        type: "type"
      }
    }
    op {
      name: "MatMul"
      input_arg {
        name: "a"
        type_attr: "T"
      }
      input_arg {
        name: "b"
        type_attr: "T"
      }
      output_arg {
        name: "product"
        type_attr: "T"
      }
      attr {
        name: "transpose_a"
        type: "bool"
        default_value {
          b: false
        }
      }
      attr {
        name: "transpose_b"
        type: "bool"
        default_value {
          b: false
        }
      }
      attr {
        name: "T"
        type: "type"
        allowed_values {
          list {
            type: DT_HALF
            type: DT_FLOAT
            type: DT_DOUBLE
            type: DT_INT32
            type: DT_COMPLEX64
            type: DT_COMPLEX128
          }
        }
      }
    }
    op {
      name: "Maximum"
      input_arg {
        name: "x"
        type_attr: "T"
      }
      input_arg {
        name: "y"
        type_attr: "T"
      }
      output_arg {
        name: "z"
        type_attr: "T"
      }
      attr {
        name: "T"
        type: "type"
        allowed_values {
          list {
            type: DT_HALF
            type: DT_FLOAT
            type: DT_DOUBLE
            type: DT_INT32
            type: DT_INT64
          }
        }
      }
      is_commutative: true
    }
    op {
      name: "Mean"
      input_arg {
        name: "input"
        type_attr: "T"
      }
      input_arg {
        name: "reduction_indices"
        type_attr: "Tidx"
      }
      output_arg {
        name: "output"
        type_attr: "T"
      }
      attr {
        name: "keep_dims"
        type: "bool"
        default_value {
          b: false
        }
      }
      attr {
        name: "T"
        type: "type"
        allowed_values {
          list {
            type: DT_FLOAT
            type: DT_DOUBLE
            type: DT_INT64
            type: DT_INT32
            type: DT_UINT8
            type: DT_UINT16
            type: DT_INT16
            type: DT_INT8
            type: DT_COMPLEX64
            type: DT_COMPLEX128
            type: DT_QINT8
            type: DT_QUINT8
            type: DT_QINT32
            type: DT_HALF
          }
        }
      }
      attr {
        name: "Tidx"
        type: "type"
        default_value {
          type: DT_INT32
        }
        allowed_values {
          list {
            type: DT_INT32
            type: DT_INT64
          }
        }
      }
    }
    op {
      name: "Mul"
      input_arg {
        name: "x"
        type_attr: "T"
      }
      input_arg {
        name: "y"
        type_attr: "T"
      }
      output_arg {
        name: "z"
        type_attr: "T"
      }
      attr {
        name: "T"
        type: "type"
        allowed_values {
          list {
            type: DT_HALF
            type: DT_FLOAT
            type: DT_DOUBLE
            type: DT_UINT8
            type: DT_INT8
            type: DT_UINT16
            type: DT_INT16
            type: DT_INT32
            type: DT_INT64
            type: DT_COMPLEX64
            type: DT_COMPLEX128
          }
        }
      }
      is_commutative: true
    }
    op {
      name: "NoOp"
    }
    op {
      name: "Pack"
      input_arg {
        name: "values"
        type_attr: "T"
        number_attr: "N"
      }
      output_arg {
        name: "output"
        type_attr: "T"
      }
      attr {
        name: "N"
        type: "int"
        has_minimum: true
        minimum: 1
      }
      attr {
        name: "T"
        type: "type"
      }
      attr {
        name: "axis"
        type: "int"
        default_value {
          i: 0
        }
      }
    }
    op {
      name: "Placeholder"
      output_arg {
        name: "output"
        type_attr: "dtype"
      }
      attr {
        name: "dtype"
        type: "type"
      }
      attr {
        name: "shape"
        type: "shape"
        default_value {
          shape {
          }
        }
      }
    }
    op {
      name: "PreventGradient"
      input_arg {
        name: "input"
        type_attr: "T"
      }
      output_arg {
        name: "output"
        type_attr: "T"
      }
      attr {
        name: "T"
        type: "type"
      }
    }
    op {
      name: "Prod"
      input_arg {
        name: "input"
        type_attr: "T"
      }
      input_arg {
        name: "reduction_indices"
        type_attr: "Tidx"
      }
      output_arg {
        name: "output"
        type_attr: "T"
      }
      attr {
        name: "keep_dims"
        type: "bool"
        default_value {
          b: false
        }
      }
      attr {
        name: "T"
        type: "type"
        allowed_values {
          list {
            type: DT_FLOAT
            type: DT_DOUBLE
            type: DT_INT64
            type: DT_INT32
            type: DT_UINT8
            type: DT_UINT16
            type: DT_INT16
            type: DT_INT8
            type: DT_COMPLEX64
            type: DT_COMPLEX128
            type: DT_QINT8
            type: DT_QUINT8
            type: DT_QINT32
            type: DT_HALF
          }
        }
      }
      attr {
        name: "Tidx"
        type: "type"
        default_value {
          type: DT_INT32
        }
        allowed_values {
          list {
            type: DT_INT32
            type: DT_INT64
          }
        }
      }
    }
    op {
      name: "RealDiv"
      input_arg {
        name: "x"
        type_attr: "T"
      }
      input_arg {
        name: "y"
        type_attr: "T"
      }
      output_arg {
        name: "z"
        type_attr: "T"
      }
      attr {
        name: "T"
        type: "type"
        allowed_values {
          list {
            type: DT_HALF
            type: DT_FLOAT
            type: DT_DOUBLE
            type: DT_UINT8
            type: DT_INT8
            type: DT_UINT16
            type: DT_INT16
            type: DT_INT32
            type: DT_INT64
            type: DT_COMPLEX64
            type: DT_COMPLEX128
          }
        }
      }
    }
    op {
      name: "Reshape"
      input_arg {
        name: "tensor"
        type_attr: "T"
      }
      input_arg {
        name: "shape"
        type_attr: "Tshape"
      }
      output_arg {
        name: "output"
        type_attr: "T"
      }
      attr {
        name: "T"
        type: "type"
      }
      attr {
        name: "Tshape"
        type: "type"
        default_value {
          type: DT_INT32
        }
        allowed_values {
          list {
            type: DT_INT32
            type: DT_INT64
          }
        }
      }
    }
    op {
      name: "RestoreV2"
      input_arg {
        name: "prefix"
        type: DT_STRING
      }
      input_arg {
        name: "tensor_names"
        type: DT_STRING
      }
      input_arg {
        name: "shape_and_slices"
        type: DT_STRING
      }
      output_arg {
        name: "tensors"
        type_list_attr: "dtypes"
      }
      attr {
        name: "dtypes"
        type: "list(type)"
        has_minimum: true
        minimum: 1
      }
    }
    op {
      name: "SaveV2"
      input_arg {
        name: "prefix"
        type: DT_STRING
      }
      input_arg {
        name: "tensor_names"
        type: DT_STRING
      }
      input_arg {
        name: "shape_and_slices"
        type: DT_STRING
      }
      input_arg {
        name: "tensors"
        type_list_attr: "dtypes"
      }
      attr {
        name: "dtypes"
        type: "list(type)"
        has_minimum: true
        minimum: 1
      }
    }
    op {
      name: "Shape"
      input_arg {
        name: "input"
        type_attr: "T"
      }
      output_arg {
        name: "output"
        type_attr: "out_type"
      }
      attr {
        name: "T"
        type: "type"
      }
      attr {
        name: "out_type"
        type: "type"
        default_value {
          type: DT_INT32
        }
        allowed_values {
          list {
            type: DT_INT32
            type: DT_INT64
          }
        }
      }
    }
    op {
      name: "Slice"
      input_arg {
        name: "input"
        type_attr: "T"
      }
      input_arg {
        name: "begin"
        type_attr: "Index"
      }
      input_arg {
        name: "size"
        type_attr: "Index"
      }
      output_arg {
        name: "output"
        type_attr: "T"
      }
      attr {
        name: "T"
        type: "type"
      }
      attr {
        name: "Index"
        type: "type"
        allowed_values {
          list {
            type: DT_INT32
            type: DT_INT64
          }
        }
      }
    }
    op {
      name: "SoftmaxCrossEntropyWithLogits"
      input_arg {
        name: "features"
        type_attr: "T"
      }
      input_arg {
        name: "labels"
        type_attr: "T"
      }
      output_arg {
        name: "loss"
        type_attr: "T"
      }
      output_arg {
        name: "backprop"
        type_attr: "T"
      }
      attr {
        name: "T"
        type: "type"
        allowed_values {
          list {
            type: DT_HALF
            type: DT_FLOAT
            type: DT_DOUBLE
          }
        }
      }
    }
    op {
      name: "Sub"
      input_arg {
        name: "x"
        type_attr: "T"
      }
      input_arg {
        name: "y"
        type_attr: "T"
      }
      output_arg {
        name: "z"
        type_attr: "T"
      }
      attr {
        name: "T"
        type: "type"
        allowed_values {
          list {
            type: DT_HALF
            type: DT_FLOAT
            type: DT_DOUBLE
            type: DT_INT32
            type: DT_INT64
            type: DT_COMPLEX64
            type: DT_COMPLEX128
          }
        }
      }
    }
    op {
      name: "Sum"
      input_arg {
        name: "input"
        type_attr: "T"
      }
      input_arg {
        name: "reduction_indices"
        type_attr: "Tidx"
      }
      output_arg {
        name: "output"
        type_attr: "T"
      }
      attr {
        name: "keep_dims"
        type: "bool"
        default_value {
          b: false
        }
      }
      attr {
        name: "T"
        type: "type"
        allowed_values {
          list {
            type: DT_FLOAT
            type: DT_DOUBLE
            type: DT_INT64
            type: DT_INT32
            type: DT_UINT8
            type: DT_UINT16
            type: DT_INT16
            type: DT_INT8
            type: DT_COMPLEX64
            type: DT_COMPLEX128
            type: DT_QINT8
            type: DT_QUINT8
            type: DT_QINT32
            type: DT_HALF
          }
        }
      }
      attr {
        name: "Tidx"
        type: "type"
        default_value {
          type: DT_INT32
        }
        allowed_values {
          list {
            type: DT_INT32
            type: DT_INT64
          }
        }
      }
    }
    op {
      name: "Tile"
      input_arg {
        name: "input"
        type_attr: "T"
      }
      input_arg {
        name: "multiples"
        type_attr: "Tmultiples"
      }
      output_arg {
        name: "output"
        type_attr: "T"
      }
      attr {
        name: "T"
        type: "type"
      }
      attr {
        name: "Tmultiples"
        type: "type"
        default_value {
          type: DT_INT32
        }
        allowed_values {
          list {
            type: DT_INT32
            type: DT_INT64
          }
        }
      }
    }
    op {
      name: "VariableV2"
      output_arg {
        name: "ref"
        type_attr: "dtype"
        is_ref: true
      }
      attr {
        name: "shape"
        type: "shape"
      }
      attr {
        name: "dtype"
        type: "type"
      }
      attr {
        name: "container"
        type: "string"
        default_value {
          s: ""
        }
      }
      attr {
        name: "shared_name"
        type: "string"
        default_value {
          s: ""
        }
      }
      is_stateful: true
    }
    op {
      name: "ZerosLike"
      input_arg {
        name: "x"
        type_attr: "T"
      }
      output_arg {
        name: "y"
        type_attr: "T"
      }
      attr {
        name: "T"
        type: "type"
      }
    }
  }
  tensorflow_version: "1.0.1"
  tensorflow_git_version: "v1.0.0-65-g4763edf-dirty"
}
graph_def {
  node {
    name: "Placeholder"
    op: "Placeholder"
    attr {
      key: "_output_shapes"
      value {
        list {
          shape {
            dim {
              size: -1
            }
            dim {
              size: 784
            }
          }
        }
      }
    }
    attr {
      key: "dtype"
      value {
        type: DT_FLOAT
      }
    }
    attr {
      key: "shape"
      value {
        shape {
        }
      }
    }
  }
  node {
    name: "zeros"
    op: "Const"
    attr {
      key: "_output_shapes"
      value {
        list {
          shape {
            dim {
              size: 784
            }
            dim {
              size: 10
            }
          }
        }
      }
    }
    attr {
      key: "dtype"
      value {
        type: DT_FLOAT
      }
    }
    attr {
      key: "value"
      value {
        tensor {
          dtype: DT_FLOAT
          tensor_shape {
            dim {
              size: 784
            }
            dim {
              size: 10
            }
          }
          float_val: 0.0
        }
      }
    }
  }
  node {
    name: "Variable"
    op: "VariableV2"
    attr {
      key: "_output_shapes"
      value {
        list {
          shape {
            dim {
              size: 784
            }
            dim {
              size: 10
            }
          }
        }
      }
    }
    attr {
      key: "container"
      value {
        s: ""
      }
    }
    attr {
      key: "dtype"
      value {
        type: DT_FLOAT
      }
    }
    attr {
      key: "shape"
      value {
        shape {
          dim {
            size: 784
          }
          dim {
            size: 10
          }
        }
      }
    }
    attr {
      key: "shared_name"
      value {
        s: ""
      }
    }
  }
  node {
    name: "Variable/Assign"
    op: "Assign"
    input: "Variable"
    input: "zeros"
    attr {
      key: "T"
      value {
        type: DT_FLOAT
      }
    }
    attr {
      key: "_class"
      value {
        list {
          s: "loc:@Variable"
        }
      }
    }
    attr {
      key: "_output_shapes"
      value {
        list {
          shape {
            dim {
              size: 784
            }
            dim {
              size: 10
            }
          }
        }
      }
    }
    attr {
      key: "use_locking"
      value {
        b: true
      }
    }
    attr {
      key: "validate_shape"
      value {
        b: true
      }
    }
  }
  node {
    name: "Variable/read"
    op: "Identity"
    input: "Variable"
    attr {
      key: "T"
      value {
        type: DT_FLOAT
      }
    }
    attr {
      key: "_class"
      value {
        list {
          s: "loc:@Variable"
        }
      }
    }
    attr {
      key: "_output_shapes"
      value {
        list {
          shape {
            dim {
              size: 784
            }
            dim {
              size: 10
            }
          }
        }
      }
    }
  }
  node {
    name: "zeros_1"
    op: "Const"
    attr {
      key: "_output_shapes"
      value {
        list {
          shape {
            dim {
              size: 10
            }
          }
        }
      }
    }
    attr {
      key: "dtype"
      value {
        type: DT_FLOAT
      }
    }
    attr {
      key: "value"
      value {
        tensor {
          dtype: DT_FLOAT
          tensor_shape {
            dim {
              size: 10
            }
          }
          float_val: 0.0
        }
      }
    }
  }
  node {
    name: "Variable_1"
    op: "VariableV2"
    attr {
      key: "_output_shapes"
      value {
        list {
          shape {
            dim {
              size: 10
            }
          }
        }
      }
    }
    attr {
      key: "container"
      value {
        s: ""
      }
    }
    attr {
      key: "dtype"
      value {
        type: DT_FLOAT
      }
    }
    attr {
      key: "shape"
      value {
        shape {
          dim {
            size: 10
          }
        }
      }
    }
    attr {
      key: "shared_name"
      value {
        s: ""
      }
    }
  }
  node {
    name: "Variable_1/Assign"
    op: "Assign"
    input: "Variable_1"
    input: "zeros_1"
    attr {
      key: "T"
      value {
        type: DT_FLOAT
      }
    }
    attr {
      key: "_class"
      value {
        list {
          s: "loc:@Variable_1"
        }
      }
    }
    attr {
      key: "_output_shapes"
      value {
        list {
          shape {
            dim {
              size: 10
            }
          }
        }
      }
    }
    attr {
      key: "use_locking"
      value {
        b: true
      }
    }
    attr {
      key: "validate_shape"
      value {
        b: true
      }
    }
  }
  node {
    name: "Variable_1/read"
    op: "Identity"
    input: "Variable_1"
    attr {
      key: "T"
      value {
        type: DT_FLOAT
      }
    }
    attr {
      key: "_class"
      value {
        list {
          s: "loc:@Variable_1"
        }
      }
    }
    attr {
      key: "_output_shapes"
      value {
        list {
          shape {
            dim {
              size: 10
            }
          }
        }
      }
    }
  }
  node {
    name: "MatMul"
    op: "MatMul"
    input: "Placeholder"
    input: "Variable/read"
    attr {
      key: "T"
      value {
        type: DT_FLOAT
      }
    }
    attr {
      key: "_output_shapes"
      value {
        list {
          shape {
            dim {
              size: -1
            }
            dim {
              size: 10
            }
          }
        }
      }
    }
    attr {
      key: "transpose_a"
      value {
        b: false
      }
    }
    attr {
      key: "transpose_b"
      value {
        b: false
      }
    }
  }
  node {
    name: "add"
    op: "Add"
    input: "MatMul"
    input: "Variable_1/read"
    attr {
      key: "T"
      value {
        type: DT_FLOAT
      }
    }
    attr {
      key: "_output_shapes"
      value {
        list {
          shape {
            dim {
              size: -1
            }
            dim {
              size: 10
            }
          }
        }
      }
    }
  }
  node {
    name: "Placeholder_1"
    op: "Placeholder"
    attr {
      key: "_output_shapes"
      value {
        list {
          shape {
            dim {
              size: -1
            }
            dim {
              size: 10
            }
          }
        }
      }
    }
    attr {
      key: "dtype"
      value {
        type: DT_FLOAT
      }
    }
    attr {
      key: "shape"
      value {
        shape {
        }
      }
    }
  }
  node {
    name: "Rank"
    op: "Const"
    attr {
      key: "_output_shapes"
      value {
        list {
          shape {
          }
        }
      }
    }
    attr {
      key: "dtype"
      value {
        type: DT_INT32
      }
    }
    attr {
      key: "value"
      value {
        tensor {
          dtype: DT_INT32
          tensor_shape {
          }
          int_val: 2
        }
      }
    }
  }
  node {
    name: "Shape"
    op: "Shape"
    input: "add"
    attr {
      key: "T"
      value {
        type: DT_FLOAT
      }
    }
    attr {
      key: "_output_shapes"
      value {
        list {
          shape {
            dim {
              size: 2
            }
          }
        }
      }
    }
    attr {
      key: "out_type"
      value {
        type: DT_INT32
      }
    }
  }
  node {
    name: "Rank_1"
    op: "Const"
    attr {
      key: "_output_shapes"
      value {
        list {
          shape {
          }
        }
      }
    }
    attr {
      key: "dtype"
      value {
        type: DT_INT32
      }
    }
    attr {
      key: "value"
      value {
        tensor {
          dtype: DT_INT32
          tensor_shape {
          }
          int_val: 2
        }
      }
    }
  }
  node {
    name: "Shape_1"
    op: "Shape"
    input: "add"
    attr {
      key: "T"
      value {
        type: DT_FLOAT
      }
    }
    attr {
      key: "_output_shapes"
      value {
        list {
          shape {
            dim {
              size: 2
            }
          }
        }
      }
    }
    attr {
      key: "out_type"
      value {
        type: DT_INT32
      }
    }
  }
  node {
    name: "Sub/y"
    op: "Const"
    attr {
      key: "_output_shapes"
      value {
        list {
          shape {
          }
        }
      }
    }
    attr {
      key: "dtype"
      value {
        type: DT_INT32
      }
    }
    attr {
      key: "value"
      value {
        tensor {
          dtype: DT_INT32
          tensor_shape {
          }
          int_val: 1
        }
      }
    }
  }
  node {
    name: "Sub"
    op: "Sub"
    input: "Rank_1"
    input: "Sub/y"
    attr {
      key: "T"
      value {
        type: DT_INT32
      }
    }
    attr {
      key: "_output_shapes"
      value {
        list {
          shape {
          }
        }
      }
    }
  }
  node {
    name: "Slice/begin"
    op: "Pack"
    input: "Sub"
    attr {
      key: "N"
      value {
        i: 1
      }
    }
    attr {
      key: "T"
      value {
        type: DT_INT32
      }
    }
    attr {
      key: "_output_shapes"
      value {
        list {
          shape {
            dim {
              size: 1
            }
          }
        }
      }
    }
    attr {
      key: "axis"
      value {
        i: 0
      }
    }
  }
  node {
    name: "Slice/size"
    op: "Const"
    attr {
      key: "_output_shapes"
      value {
        list {
          shape {
            dim {
              size: 1
            }
          }
        }
      }
    }
    attr {
      key: "dtype"
      value {
        type: DT_INT32
      }
    }
    attr {
      key: "value"
      value {
        tensor {
          dtype: DT_INT32
          tensor_shape {
            dim {
              size: 1
            }
          }
          int_val: 1
        }
      }
    }
  }
  node {
    name: "Slice"
    op: "Slice"
    input: "Shape_1"
    input: "Slice/begin"
    input: "Slice/size"
    attr {
      key: "Index"
      value {
        type: DT_INT32
      }
    }
    attr {
      key: "T"
      value {
        type: DT_INT32
      }
    }
    attr {
      key: "_output_shapes"
      value {
        list {
          shape {
            dim {
              size: 1
            }
          }
        }
      }
    }
  }
  node {
    name: "concat/values_0"
    op: "Const"
    attr {
      key: "_output_shapes"
      value {
        list {
          shape {
            dim {
              size: 1
            }
          }
        }
      }
    }
    attr {
      key: "dtype"
      value {
        type: DT_INT32
      }
    }
    attr {
      key: "value"
      value {
        tensor {
          dtype: DT_INT32
          tensor_shape {
            dim {
              size: 1
            }
          }
          int_val: -1
        }
      }
    }
  }
  node {
    name: "concat/axis"
    op: "Const"
    attr {
      key: "_output_shapes"
      value {
        list {
          shape {
          }
        }
      }
    }
    attr {
      key: "dtype"
      value {
        type: DT_INT32
      }
    }
    attr {
      key: "value"
      value {
        tensor {
          dtype: DT_INT32
          tensor_shape {
          }
          int_val: 0
        }
      }
    }
  }
  node {
    name: "concat"
    op: "ConcatV2"
    input: "concat/values_0"
    input: "Slice"
    input: "concat/axis"
    attr {
      key: "N"
      value {
        i: 2
      }
    }
    attr {
      key: "T"
      value {
        type: DT_INT32
      }
    }
    attr {
      key: "Tidx"
      value {
        type: DT_INT32
      }
    }
    attr {
      key: "_output_shapes"
      value {
        list {
          shape {
            dim {
              size: 2
            }
          }
        }
      }
    }
  }
  node {
    name: "Reshape"
    op: "Reshape"
    input: "add"
    input: "concat"
    attr {
      key: "T"
      value {
        type: DT_FLOAT
      }
    }
    attr {
      key: "Tshape"
      value {
        type: DT_INT32
      }
    }
    attr {
      key: "_output_shapes"
      value {
        list {
          shape {
            dim {
              size: -1
            }
            dim {
              size: -1
            }
          }
        }
      }
    }
  }
  node {
    name: "Rank_2"
    op: "Const"
    attr {
      key: "_output_shapes"
      value {
        list {
          shape {
          }
        }
      }
    }
    attr {
      key: "dtype"
      value {
        type: DT_INT32
      }
    }
    attr {
      key: "value"
      value {
        tensor {
          dtype: DT_INT32
          tensor_shape {
          }
          int_val: 2
        }
      }
    }
  }
  node {
    name: "Shape_2"
    op: "Shape"
    input: "Placeholder_1"
    attr {
      key: "T"
      value {
        type: DT_FLOAT
      }
    }
    attr {
      key: "_output_shapes"
      value {
        list {
          shape {
            dim {
              size: 2
            }
          }
        }
      }
    }
    attr {
      key: "out_type"
      value {
        type: DT_INT32
      }
    }
  }
  node {
    name: "Sub_1/y"
    op: "Const"
    attr {
      key: "_output_shapes"
      value {
        list {
          shape {
          }
        }
      }
    }
    attr {
      key: "dtype"
      value {
        type: DT_INT32
      }
    }
    attr {
      key: "value"
      value {
        tensor {
          dtype: DT_INT32
          tensor_shape {
          }
          int_val: 1
        }
      }
    }
  }
  node {
    name: "Sub_1"
    op: "Sub"
    input: "Rank_2"
    input: "Sub_1/y"
    attr {
      key: "T"
      value {
        type: DT_INT32
      }
    }
    attr {
      key: "_output_shapes"
      value {
        list {
          shape {
          }
        }
      }
    }
  }
  node {
    name: "Slice_1/begin"
    op: "Pack"
    input: "Sub_1"
    attr {
      key: "N"
      value {
        i: 1
      }
    }
    attr {
      key: "T"
      value {
        type: DT_INT32
      }
    }
    attr {
      key: "_output_shapes"
      value {
        list {
          shape {
            dim {
              size: 1
            }
          }
        }
      }
    }
    attr {
      key: "axis"
      value {
        i: 0
      }
    }
  }
  node {
    name: "Slice_1/size"
    op: "Const"
    attr {
      key: "_output_shapes"
      value {
        list {
          shape {
            dim {
              size: 1
            }
          }
        }
      }
    }
    attr {
      key: "dtype"
      value {
        type: DT_INT32
      }
    }
    attr {
      key: "value"
      value {
        tensor {
          dtype: DT_INT32
          tensor_shape {
            dim {
              size: 1
            }
          }
          int_val: 1
        }
      }
    }
  }
  node {
    name: "Slice_1"
    op: "Slice"
    input: "Shape_2"
    input: "Slice_1/begin"
    input: "Slice_1/size"
    attr {
      key: "Index"
      value {
        type: DT_INT32
      }
    }
    attr {
      key: "T"
      value {
        type: DT_INT32
      }
    }
    attr {
      key: "_output_shapes"
      value {
        list {
          shape {
            dim {
              size: 1
            }
          }
        }
      }
    }
  }
  node {
    name: "concat_1/values_0"
    op: "Const"
    attr {
      key: "_output_shapes"
      value {
        list {
          shape {
            dim {
              size: 1
            }
          }
        }
      }
    }
    attr {
      key: "dtype"
      value {
        type: DT_INT32
      }
    }
    attr {
      key: "value"
      value {
        tensor {
          dtype: DT_INT32
          tensor_shape {
            dim {
              size: 1
            }
          }
          int_val: -1
        }
      }
    }
  }
  node {
    name: "concat_1/axis"
    op: "Const"
    attr {
      key: "_output_shapes"
      value {
        list {
          shape {
          }
        }
      }
    }
    attr {
      key: "dtype"
      value {
        type: DT_INT32
      }
    }
    attr {
      key: "value"
      value {
        tensor {
          dtype: DT_INT32
          tensor_shape {
          }
          int_val: 0
        }
      }
    }
  }
  node {
    name: "concat_1"
    op: "ConcatV2"
    input: "concat_1/values_0"
    input: "Slice_1"
    input: "concat_1/axis"
    attr {
      key: "N"
      value {
        i: 2
      }
    }
    attr {
      key: "T"
      value {
        type: DT_INT32
      }
    }
    attr {
      key: "Tidx"
      value {
        type: DT_INT32
      }
    }
    attr {
      key: "_output_shapes"
      value {
        list {
          shape {
            dim {
              size: 2
            }
          }
        }
      }
    }
  }
  node {
    name: "Reshape_1"
    op: "Reshape"
    input: "Placeholder_1"
    input: "concat_1"
    attr {
      key: "T"
      value {
        type: DT_FLOAT
      }
    }
    attr {
      key: "Tshape"
      value {
        type: DT_INT32
      }
    }
    attr {
      key: "_output_shapes"
      value {
        list {
          shape {
            dim {
              size: -1
            }
            dim {
              size: -1
            }
          }
        }
      }
    }
  }
  node {
    name: "SoftmaxCrossEntropyWithLogits"
    op: "SoftmaxCrossEntropyWithLogits"
    input: "Reshape"
    input: "Reshape_1"
    attr {
      key: "T"
      value {
        type: DT_FLOAT
      }
    }
    attr {
      key: "_output_shapes"
      value {
        list {
          shape {
            dim {
              size: -1
            }
          }
          shape {
            dim {
              size: -1
            }
            dim {
              size: -1
            }
          }
        }
      }
    }
  }
  node {
    name: "Sub_2/y"
    op: "Const"
    attr {
      key: "_output_shapes"
      value {
        list {
          shape {
          }
        }
      }
    }
    attr {
      key: "dtype"
      value {
        type: DT_INT32
      }
    }
    attr {
      key: "value"
      value {
        tensor {
          dtype: DT_INT32
          tensor_shape {
          }
          int_val: 1
        }
      }
    }
  }
  node {
    name: "Sub_2"
    op: "Sub"
    input: "Rank"
    input: "Sub_2/y"
    attr {
      key: "T"
      value {
        type: DT_INT32
      }
    }
    attr {
      key: "_output_shapes"
      value {
        list {
          shape {
          }
        }
      }
    }
  }
  node {
    name: "Slice_2/begin"
    op: "Const"
    attr {
      key: "_output_shapes"
      value {
        list {
          shape {
            dim {
              size: 1
            }
          }
        }
      }
    }
    attr {
      key: "dtype"
      value {
        type: DT_INT32
      }
    }
    attr {
      key: "value"
      value {
        tensor {
          dtype: DT_INT32
          tensor_shape {
            dim {
              size: 1
            }
          }
          int_val: 0
        }
      }
    }
  }
  node {
    name: "Slice_2/size"
    op: "Pack"
    input: "Sub_2"
    attr {
      key: "N"
      value {
        i: 1
      }
    }
    attr {
      key: "T"
      value {
        type: DT_INT32
      }
    }
    attr {
      key: "_output_shapes"
      value {
        list {
          shape {
            dim {
              size: 1
            }
          }
        }
      }
    }
    attr {
      key: "axis"
      value {
        i: 0
      }
    }
  }
  node {
    name: "Slice_2"
    op: "Slice"
    input: "Shape"
    input: "Slice_2/begin"
    input: "Slice_2/size"
    attr {
      key: "Index"
      value {
        type: DT_INT32
      }
    }
    attr {
      key: "T"
      value {
        type: DT_INT32
      }
    }
    attr {
      key: "_output_shapes"
      value {
        list {
          shape {
            dim {
              size: -1
            }
          }
        }
      }
    }
  }
  node {
    name: "Reshape_2"
    op: "Reshape"
    input: "SoftmaxCrossEntropyWithLogits"
    input: "Slice_2"
    attr {
      key: "T"
      value {
        type: DT_FLOAT
      }
    }
    attr {
      key: "Tshape"
      value {
        type: DT_INT32
      }
    }
    attr {
      key: "_output_shapes"
      value {
        list {
          shape {
            dim {
              size: -1
            }
          }
        }
      }
    }
  }
  node {
    name: "Const"
    op: "Const"
    attr {
      key: "_output_shapes"
      value {
        list {
          shape {
            dim {
              size: 1
            }
          }
        }
      }
    }
    attr {
      key: "dtype"
      value {
        type: DT_INT32
      }
    }
    attr {
      key: "value"
      value {
        tensor {
          dtype: DT_INT32
          tensor_shape {
            dim {
              size: 1
            }
          }
          int_val: 0
        }
      }
    }
  }
  node {
    name: "Mean"
    op: "Mean"
    input: "Reshape_2"
    input: "Const"
    attr {
      key: "T"
      value {
        type: DT_FLOAT
      }
    }
    attr {
      key: "Tidx"
      value {
        type: DT_INT32
      }
    }
    attr {
      key: "_output_shapes"
      value {
        list {
          shape {
          }
        }
      }
    }
    attr {
      key: "keep_dims"
      value {
        b: false
      }
    }
  }
  node {
    name: "gradients/Shape"
    op: "Const"
    attr {
      key: "_output_shapes"
      value {
        list {
          shape {
            dim {
            }
          }
        }
      }
    }
    attr {
      key: "dtype"
      value {
        type: DT_INT32
      }
    }
    attr {
      key: "value"
      value {
        tensor {
          dtype: DT_INT32
          tensor_shape {
            dim {
            }
          }
        }
      }
    }
  }
  node {
    name: "gradients/Const"
    op: "Const"
    attr {
      key: "_output_shapes"
      value {
        list {
          shape {
          }
        }
      }
    }
    attr {
      key: "dtype"
      value {
        type: DT_FLOAT
      }
    }
    attr {
      key: "value"
      value {
        tensor {
          dtype: DT_FLOAT
          tensor_shape {
          }
          float_val: 1.0
        }
      }
    }
  }
  node {
    name: "gradients/Fill"
    op: "Fill"
    input: "gradients/Shape"
    input: "gradients/Const"
    attr {
      key: "T"
      value {
        type: DT_FLOAT
      }
    }
    attr {
      key: "_output_shapes"
      value {
        list {
          shape {
          }
        }
      }
    }
  }
  node {
    name: "gradients/Mean_grad/Reshape/shape"
    op: "Const"
    attr {
      key: "_output_shapes"
      value {
        list {
          shape {
            dim {
              size: 1
            }
          }
        }
      }
    }
    attr {
      key: "dtype"
      value {
        type: DT_INT32
      }
    }
    attr {
      key: "value"
      value {
        tensor {
          dtype: DT_INT32
          tensor_shape {
            dim {
              size: 1
            }
          }
          int_val: 1
        }
      }
    }
  }
  node {
    name: "gradients/Mean_grad/Reshape"
    op: "Reshape"
    input: "gradients/Fill"
    input: "gradients/Mean_grad/Reshape/shape"
    attr {
      key: "T"
      value {
        type: DT_FLOAT
      }
    }
    attr {
      key: "Tshape"
      value {
        type: DT_INT32
      }
    }
    attr {
      key: "_output_shapes"
      value {
        list {
          shape {
            dim {
              size: 1
            }
          }
        }
      }
    }
  }
  node {
    name: "gradients/Mean_grad/Shape"
    op: "Shape"
    input: "Reshape_2"
    attr {
      key: "T"
      value {
        type: DT_FLOAT
      }
    }
    attr {
      key: "_output_shapes"
      value {
        list {
          shape {
            dim {
              size: 1
            }
          }
        }
      }
    }
    attr {
      key: "out_type"
      value {
        type: DT_INT32
      }
    }
  }
  node {
    name: "gradients/Mean_grad/Tile"
    op: "Tile"
    input: "gradients/Mean_grad/Reshape"
    input: "gradients/Mean_grad/Shape"
    attr {
      key: "T"
      value {
        type: DT_FLOAT
      }
    }
    attr {
      key: "Tmultiples"
      value {
        type: DT_INT32
      }
    }
    attr {
      key: "_output_shapes"
      value {
        list {
          shape {
            dim {
              size: -1
            }
          }
        }
      }
    }
  }
  node {
    name: "gradients/Mean_grad/Shape_1"
    op: "Shape"
    input: "Reshape_2"
    attr {
      key: "T"
      value {
        type: DT_FLOAT
      }
    }
    attr {
      key: "_output_shapes"
      value {
        list {
          shape {
            dim {
              size: 1
            }
          }
        }
      }
    }
    attr {
      key: "out_type"
      value {
        type: DT_INT32
      }
    }
  }
  node {
    name: "gradients/Mean_grad/Shape_2"
    op: "Const"
    attr {
      key: "_output_shapes"
      value {
        list {
          shape {
            dim {
            }
          }
        }
      }
    }
    attr {
      key: "dtype"
      value {
        type: DT_INT32
      }
    }
    attr {
      key: "value"
      value {
        tensor {
          dtype: DT_INT32
          tensor_shape {
            dim {
            }
          }
        }
      }
    }
  }
  node {
    name: "gradients/Mean_grad/Const"
    op: "Const"
    attr {
      key: "_output_shapes"
      value {
        list {
          shape {
            dim {
              size: 1
            }
          }
        }
      }
    }
    attr {
      key: "dtype"
      value {
        type: DT_INT32
      }
    }
    attr {
      key: "value"
      value {
        tensor {
          dtype: DT_INT32
          tensor_shape {
            dim {
              size: 1
            }
          }
          int_val: 0
        }
      }
    }
  }
  node {
    name: "gradients/Mean_grad/Prod"
    op: "Prod"
    input: "gradients/Mean_grad/Shape_1"
    input: "gradients/Mean_grad/Const"
    attr {
      key: "T"
      value {
        type: DT_INT32
      }
    }
    attr {
      key: "Tidx"
      value {
        type: DT_INT32
      }
    }
    attr {
      key: "_output_shapes"
      value {
        list {
          shape {
          }
        }
      }
    }
    attr {
      key: "keep_dims"
      value {
        b: false
      }
    }
  }
  node {
    name: "gradients/Mean_grad/Const_1"
    op: "Const"
    attr {
      key: "_output_shapes"
      value {
        list {
          shape {
            dim {
              size: 1
            }
          }
        }
      }
    }
    attr {
      key: "dtype"
      value {
        type: DT_INT32
      }
    }
    attr {
      key: "value"
      value {
        tensor {
          dtype: DT_INT32
          tensor_shape {
            dim {
              size: 1
            }
          }
          int_val: 0
        }
      }
    }
  }
  node {
    name: "gradients/Mean_grad/Prod_1"
    op: "Prod"
    input: "gradients/Mean_grad/Shape_2"
    input: "gradients/Mean_grad/Const_1"
    attr {
      key: "T"
      value {
        type: DT_INT32
      }
    }
    attr {
      key: "Tidx"
      value {
        type: DT_INT32
      }
    }
    attr {
      key: "_output_shapes"
      value {
        list {
          shape {
          }
        }
      }
    }
    attr {
      key: "keep_dims"
      value {
        b: false
      }
    }
  }
  node {
    name: "gradients/Mean_grad/Maximum/y"
    op: "Const"
    attr {
      key: "_output_shapes"
      value {
        list {
          shape {
          }
        }
      }
    }
    attr {
      key: "dtype"
      value {
        type: DT_INT32
      }
    }
    attr {
      key: "value"
      value {
        tensor {
          dtype: DT_INT32
          tensor_shape {
          }
          int_val: 1
        }
      }
    }
  }
  node {
    name: "gradients/Mean_grad/Maximum"
    op: "Maximum"
    input: "gradients/Mean_grad/Prod_1"
    input: "gradients/Mean_grad/Maximum/y"
    attr {
      key: "T"
      value {
        type: DT_INT32
      }
    }
    attr {
      key: "_output_shapes"
      value {
        list {
          shape {
          }
        }
      }
    }
  }
  node {
    name: "gradients/Mean_grad/floordiv"
    op: "FloorDiv"
    input: "gradients/Mean_grad/Prod"
    input: "gradients/Mean_grad/Maximum"
    attr {
      key: "T"
      value {
        type: DT_INT32
      }
    }
    attr {
      key: "_output_shapes"
      value {
        list {
          shape {
          }
        }
      }
    }
  }
  node {
    name: "gradients/Mean_grad/Cast"
    op: "Cast"
    input: "gradients/Mean_grad/floordiv"
    attr {
      key: "DstT"
      value {
        type: DT_FLOAT
      }
    }
    attr {
      key: "SrcT"
      value {
        type: DT_INT32
      }
    }
    attr {
      key: "_output_shapes"
      value {
        list {
          shape {
          }
        }
      }
    }
  }
  node {
    name: "gradients/Mean_grad/truediv"
    op: "RealDiv"
    input: "gradients/Mean_grad/Tile"
    input: "gradients/Mean_grad/Cast"
    attr {
      key: "T"
      value {
        type: DT_FLOAT
      }
    }
    attr {
      key: "_output_shapes"
      value {
        list {
          shape {
            dim {
              size: -1
            }
          }
        }
      }
    }
  }
  node {
    name: "gradients/Reshape_2_grad/Shape"
    op: "Shape"
    input: "SoftmaxCrossEntropyWithLogits"
    attr {
      key: "T"
      value {
        type: DT_FLOAT
      }
    }
    attr {
      key: "_output_shapes"
      value {
        list {
          shape {
            dim {
              size: 1
            }
          }
        }
      }
    }
    attr {
      key: "out_type"
      value {
        type: DT_INT32
      }
    }
  }
  node {
    name: "gradients/Reshape_2_grad/Reshape"
    op: "Reshape"
    input: "gradients/Mean_grad/truediv"
    input: "gradients/Reshape_2_grad/Shape"
    attr {
      key: "T"
      value {
        type: DT_FLOAT
      }
    }
    attr {
      key: "Tshape"
      value {
        type: DT_INT32
      }
    }
    attr {
      key: "_output_shapes"
      value {
        list {
          shape {
            dim {
              size: -1
            }
          }
        }
      }
    }
  }
  node {
    name: "gradients/zeros_like"
    op: "ZerosLike"
    input: "SoftmaxCrossEntropyWithLogits:1"
    attr {
      key: "T"
      value {
        type: DT_FLOAT
      }
    }
    attr {
      key: "_output_shapes"
      value {
        list {
          shape {
            dim {
              size: -1
            }
            dim {
              size: -1
            }
          }
        }
      }
    }
  }
  node {
    name: "gradients/SoftmaxCrossEntropyWithLogits_grad/PreventGradient"
    op: "PreventGradient"
    input: "SoftmaxCrossEntropyWithLogits:1"
    attr {
      key: "T"
      value {
        type: DT_FLOAT
      }
    }
    attr {
      key: "_output_shapes"
      value {
        list {
          shape {
            dim {
              size: -1
            }
            dim {
              size: -1
            }
          }
        }
      }
    }
  }
  node {
    name: "gradients/SoftmaxCrossEntropyWithLogits_grad/ExpandDims/dim"
    op: "Const"
    attr {
      key: "_output_shapes"
      value {
        list {
          shape {
          }
        }
      }
    }
    attr {
      key: "dtype"
      value {
        type: DT_INT32
      }
    }
    attr {
      key: "value"
      value {
        tensor {
          dtype: DT_INT32
          tensor_shape {
          }
          int_val: -1
        }
      }
    }
  }
  node {
    name: "gradients/SoftmaxCrossEntropyWithLogits_grad/ExpandDims"
    op: "ExpandDims"
    input: "gradients/Reshape_2_grad/Reshape"
    input: "gradients/SoftmaxCrossEntropyWithLogits_grad/ExpandDims/dim"
    attr {
      key: "T"
      value {
        type: DT_FLOAT
      }
    }
    attr {
      key: "Tdim"
      value {
        type: DT_INT32
      }
    }
    attr {
      key: "_output_shapes"
      value {
        list {
          shape {
            dim {
              size: -1
            }
            dim {
              size: 1
            }
          }
        }
      }
    }
  }
  node {
    name: "gradients/SoftmaxCrossEntropyWithLogits_grad/mul"
    op: "Mul"
    input: "gradients/SoftmaxCrossEntropyWithLogits_grad/ExpandDims"
    input: "gradients/SoftmaxCrossEntropyWithLogits_grad/PreventGradient"
    attr {
      key: "T"
      value {
        type: DT_FLOAT
      }
    }
    attr {
      key: "_output_shapes"
      value {
        list {
          shape {
            dim {
              size: -1
            }
            dim {
              size: -1
            }
          }
        }
      }
    }
  }
  node {
    name: "gradients/Reshape_grad/Shape"
    op: "Shape"
    input: "add"
    attr {
      key: "T"
      value {
        type: DT_FLOAT
      }
    }
    attr {
      key: "_output_shapes"
      value {
        list {
          shape {
            dim {
              size: 2
            }
          }
        }
      }
    }
    attr {
      key: "out_type"
      value {
        type: DT_INT32
      }
    }
  }
  node {
    name: "gradients/Reshape_grad/Reshape"
    op: "Reshape"
    input: "gradients/SoftmaxCrossEntropyWithLogits_grad/mul"
    input: "gradients/Reshape_grad/Shape"
    attr {
      key: "T"
      value {
        type: DT_FLOAT
      }
    }
    attr {
      key: "Tshape"
      value {
        type: DT_INT32
      }
    }
    attr {
      key: "_output_shapes"
      value {
        list {
          shape {
            dim {
              size: -1
            }
            dim {
              size: 10
            }
          }
        }
      }
    }
  }
  node {
    name: "gradients/add_grad/Shape"
    op: "Shape"
    input: "MatMul"
    attr {
      key: "T"
      value {
        type: DT_FLOAT
      }
    }
    attr {
      key: "_output_shapes"
      value {
        list {
          shape {
            dim {
              size: 2
            }
          }
        }
      }
    }
    attr {
      key: "out_type"
      value {
        type: DT_INT32
      }
    }
  }
  node {
    name: "gradients/add_grad/Shape_1"
    op: "Const"
    attr {
      key: "_output_shapes"
      value {
        list {
          shape {
            dim {
              size: 1
            }
          }
        }
      }
    }
    attr {
      key: "dtype"
      value {
        type: DT_INT32
      }
    }
    attr {
      key: "value"
      value {
        tensor {
          dtype: DT_INT32
          tensor_shape {
            dim {
              size: 1
            }
          }
          int_val: 10
        }
      }
    }
  }
  node {
    name: "gradients/add_grad/BroadcastGradientArgs"
    op: "BroadcastGradientArgs"
    input: "gradients/add_grad/Shape"
    input: "gradients/add_grad/Shape_1"
    attr {
      key: "T"
      value {
        type: DT_INT32
      }
    }
    attr {
      key: "_output_shapes"
      value {
        list {
          shape {
            dim {
              size: -1
            }
          }
          shape {
            dim {
              size: -1
            }
          }
        }
      }
    }
  }
  node {
    name: "gradients/add_grad/Sum"
    op: "Sum"
    input: "gradients/Reshape_grad/Reshape"
    input: "gradients/add_grad/BroadcastGradientArgs"
    attr {
      key: "T"
      value {
        type: DT_FLOAT
      }
    }
    attr {
      key: "Tidx"
      value {
        type: DT_INT32
      }
    }
    attr {
      key: "_output_shapes"
      value {
        list {
          shape {
            unknown_rank: true
          }
        }
      }
    }
    attr {
      key: "keep_dims"
      value {
        b: false
      }
    }
  }
  node {
    name: "gradients/add_grad/Reshape"
    op: "Reshape"
    input: "gradients/add_grad/Sum"
    input: "gradients/add_grad/Shape"
    attr {
      key: "T"
      value {
        type: DT_FLOAT
      }
    }
    attr {
      key: "Tshape"
      value {
        type: DT_INT32
      }
    }
    attr {
      key: "_output_shapes"
      value {
        list {
          shape {
            dim {
              size: -1
            }
            dim {
              size: 10
            }
          }
        }
      }
    }
  }
  node {
    name: "gradients/add_grad/Sum_1"
    op: "Sum"
    input: "gradients/Reshape_grad/Reshape"
    input: "gradients/add_grad/BroadcastGradientArgs:1"
    attr {
      key: "T"
      value {
        type: DT_FLOAT
      }
    }
    attr {
      key: "Tidx"
      value {
        type: DT_INT32
      }
    }
    attr {
      key: "_output_shapes"
      value {
        list {
          shape {
            unknown_rank: true
          }
        }
      }
    }
    attr {
      key: "keep_dims"
      value {
        b: false
      }
    }
  }
  node {
    name: "gradients/add_grad/Reshape_1"
    op: "Reshape"
    input: "gradients/add_grad/Sum_1"
    input: "gradients/add_grad/Shape_1"
    attr {
      key: "T"
      value {
        type: DT_FLOAT
      }
    }
    attr {
      key: "Tshape"
      value {
        type: DT_INT32
      }
    }
    attr {
      key: "_output_shapes"
      value {
        list {
          shape {
            dim {
              size: 10
            }
          }
        }
      }
    }
  }
  node {
    name: "gradients/add_grad/tuple/group_deps"
    op: "NoOp"
    input: "^gradients/add_grad/Reshape"
    input: "^gradients/add_grad/Reshape_1"
  }
  node {
    name: "gradients/add_grad/tuple/control_dependency"
    op: "Identity"
    input: "gradients/add_grad/Reshape"
    input: "^gradients/add_grad/tuple/group_deps"
    attr {
      key: "T"
      value {
        type: DT_FLOAT
      }
    }
    attr {
      key: "_class"
      value {
        list {
          s: "loc:@gradients/add_grad/Reshape"
        }
      }
    }
    attr {
      key: "_output_shapes"
      value {
        list {
          shape {
            dim {
              size: -1
            }
            dim {
              size: 10
            }
          }
        }
      }
    }
  }
  node {
    name: "gradients/add_grad/tuple/control_dependency_1"
    op: "Identity"
    input: "gradients/add_grad/Reshape_1"
    input: "^gradients/add_grad/tuple/group_deps"
    attr {
      key: "T"
      value {
        type: DT_FLOAT
      }
    }
    attr {
      key: "_class"
      value {
        list {
          s: "loc:@gradients/add_grad/Reshape_1"
        }
      }
    }
    attr {
      key: "_output_shapes"
      value {
        list {
          shape {
            dim {
              size: 10
            }
          }
        }
      }
    }
  }
  node {
    name: "gradients/MatMul_grad/MatMul"
    op: "MatMul"
    input: "gradients/add_grad/tuple/control_dependency"
    input: "Variable/read"
    attr {
      key: "T"
      value {
        type: DT_FLOAT
      }
    }
    attr {
      key: "_output_shapes"
      value {
        list {
          shape {
            dim {
              size: -1
            }
            dim {
              size: 784
            }
          }
        }
      }
    }
    attr {
      key: "transpose_a"
      value {
        b: false
      }
    }
    attr {
      key: "transpose_b"
      value {
        b: true
      }
    }
  }
  node {
    name: "gradients/MatMul_grad/MatMul_1"
    op: "MatMul"
    input: "Placeholder"
    input: "gradients/add_grad/tuple/control_dependency"
    attr {
      key: "T"
      value {
        type: DT_FLOAT
      }
    }
    attr {
      key: "_output_shapes"
      value {
        list {
          shape {
            dim {
              size: 784
            }
            dim {
              size: 10
            }
          }
        }
      }
    }
    attr {
      key: "transpose_a"
      value {
        b: true
      }
    }
    attr {
      key: "transpose_b"
      value {
        b: false
      }
    }
  }
  node {
    name: "gradients/MatMul_grad/tuple/group_deps"
    op: "NoOp"
    input: "^gradients/MatMul_grad/MatMul"
    input: "^gradients/MatMul_grad/MatMul_1"
  }
  node {
    name: "gradients/MatMul_grad/tuple/control_dependency"
    op: "Identity"
    input: "gradients/MatMul_grad/MatMul"
    input: "^gradients/MatMul_grad/tuple/group_deps"
    attr {
      key: "T"
      value {
        type: DT_FLOAT
      }
    }
    attr {
      key: "_class"
      value {
        list {
          s: "loc:@gradients/MatMul_grad/MatMul"
        }
      }
    }
    attr {
      key: "_output_shapes"
      value {
        list {
          shape {
            dim {
              size: -1
            }
            dim {
              size: 784
            }
          }
        }
      }
    }
  }
  node {
    name: "gradients/MatMul_grad/tuple/control_dependency_1"
    op: "Identity"
    input: "gradients/MatMul_grad/MatMul_1"
    input: "^gradients/MatMul_grad/tuple/group_deps"
    attr {
      key: "T"
      value {
        type: DT_FLOAT
      }
    }
    attr {
      key: "_class"
      value {
        list {
          s: "loc:@gradients/MatMul_grad/MatMul_1"
        }
      }
    }
    attr {
      key: "_output_shapes"
      value {
        list {
          shape {
            dim {
              size: 784
            }
            dim {
              size: 10
            }
          }
        }
      }
    }
  }
  node {
    name: "GradientDescent/learning_rate"
    op: "Const"
    attr {
      key: "_output_shapes"
      value {
        list {
          shape {
          }
        }
      }
    }
    attr {
      key: "dtype"
      value {
        type: DT_FLOAT
      }
    }
    attr {
      key: "value"
      value {
        tensor {
          dtype: DT_FLOAT
          tensor_shape {
          }
          float_val: 0.5
        }
      }
    }
  }
  node {
    name: "GradientDescent/update_Variable/ApplyGradientDescent"
    op: "ApplyGradientDescent"
    input: "Variable"
    input: "GradientDescent/learning_rate"
    input: "gradients/MatMul_grad/tuple/control_dependency_1"
    attr {
      key: "T"
      value {
        type: DT_FLOAT
      }
    }
    attr {
      key: "_class"
      value {
        list {
          s: "loc:@Variable"
        }
      }
    }
    attr {
      key: "_output_shapes"
      value {
        list {
          shape {
            dim {
              size: 784
            }
            dim {
              size: 10
            }
          }
        }
      }
    }
    attr {
      key: "use_locking"
      value {
        b: false
      }
    }
  }
  node {
    name: "GradientDescent/update_Variable_1/ApplyGradientDescent"
    op: "ApplyGradientDescent"
    input: "Variable_1"
    input: "GradientDescent/learning_rate"
    input: "gradients/add_grad/tuple/control_dependency_1"
    attr {
      key: "T"
      value {
        type: DT_FLOAT
      }
    }
    attr {
      key: "_class"
      value {
        list {
          s: "loc:@Variable_1"
        }
      }
    }
    attr {
      key: "_output_shapes"
      value {
        list {
          shape {
            dim {
              size: 10
            }
          }
        }
      }
    }
    attr {
      key: "use_locking"
      value {
        b: false
      }
    }
  }
  node {
    name: "GradientDescent"
    op: "NoOp"
    input: "^GradientDescent/update_Variable/ApplyGradientDescent"
    input: "^GradientDescent/update_Variable_1/ApplyGradientDescent"
  }
  node {
    name: "save/Const"
    op: "Const"
    attr {
      key: "_output_shapes"
      value {
        list {
          shape {
          }
        }
      }
    }
    attr {
      key: "dtype"
      value {
        type: DT_STRING
      }
    }
    attr {
      key: "value"
      value {
        tensor {
          dtype: DT_STRING
          tensor_shape {
          }
          string_val: "model"
        }
      }
    }
  }
  node {
    name: "save/SaveV2/tensor_names"
    op: "Const"
    attr {
      key: "_output_shapes"
      value {
        list {
          shape {
            dim {
              size: 2
            }
          }
        }
      }
    }
    attr {
      key: "dtype"
      value {
        type: DT_STRING
      }
    }
    attr {
      key: "value"
      value {
        tensor {
          dtype: DT_STRING
          tensor_shape {
            dim {
              size: 2
            }
          }
          string_val: "Variable"
          string_val: "Variable_1"
        }
      }
    }
  }
  node {
    name: "save/SaveV2/shape_and_slices"
    op: "Const"
    attr {
      key: "_output_shapes"
      value {
        list {
          shape {
            dim {
              size: 2
            }
          }
        }
      }
    }
    attr {
      key: "dtype"
      value {
        type: DT_STRING
      }
    }
    attr {
      key: "value"
      value {
        tensor {
          dtype: DT_STRING
          tensor_shape {
            dim {
              size: 2
            }
          }
          string_val: ""
          string_val: ""
        }
      }
    }
  }
  node {
    name: "save/SaveV2"
    op: "SaveV2"
    input: "save/Const"
    input: "save/SaveV2/tensor_names"
    input: "save/SaveV2/shape_and_slices"
    input: "Variable"
    input: "Variable_1"
    attr {
      key: "dtypes"
      value {
        list {
          type: DT_FLOAT
          type: DT_FLOAT
        }
      }
    }
  }
  node {
    name: "save/control_dependency"
    op: "Identity"
    input: "save/Const"
    input: "^save/SaveV2"
    attr {
      key: "T"
      value {
        type: DT_STRING
      }
    }
    attr {
      key: "_class"
      value {
        list {
          s: "loc:@save/Const"
        }
      }
    }
    attr {
      key: "_output_shapes"
      value {
        list {
          shape {
          }
        }
      }
    }
  }
  node {
    name: "save/RestoreV2/tensor_names"
    op: "Const"
    attr {
      key: "_output_shapes"
      value {
        list {
          shape {
            dim {
              size: 1
            }
          }
        }
      }
    }
    attr {
      key: "dtype"
      value {
        type: DT_STRING
      }
    }
    attr {
      key: "value"
      value {
        tensor {
          dtype: DT_STRING
          tensor_shape {
            dim {
              size: 1
            }
          }
          string_val: "Variable"
        }
      }
    }
  }
  node {
    name: "save/RestoreV2/shape_and_slices"
    op: "Const"
    attr {
      key: "_output_shapes"
      value {
        list {
          shape {
            dim {
              size: 1
            }
          }
        }
      }
    }
    attr {
      key: "dtype"
      value {
        type: DT_STRING
      }
    }
    attr {
      key: "value"
      value {
        tensor {
          dtype: DT_STRING
          tensor_shape {
            dim {
              size: 1
            }
          }
          string_val: ""
        }
      }
    }
  }
  node {
    name: "save/RestoreV2"
    op: "RestoreV2"
    input: "save/Const"
    input: "save/RestoreV2/tensor_names"
    input: "save/RestoreV2/shape_and_slices"
    attr {
      key: "_output_shapes"
      value {
        list {
          shape {
            unknown_rank: true
          }
        }
      }
    }
    attr {
      key: "dtypes"
      value {
        list {
          type: DT_FLOAT
        }
      }
    }
  }
  node {
    name: "save/Assign"
    op: "Assign"
    input: "Variable"
    input: "save/RestoreV2"
    attr {
      key: "T"
      value {
        type: DT_FLOAT
      }
    }
    attr {
      key: "_class"
      value {
        list {
          s: "loc:@Variable"
        }
      }
    }
    attr {
      key: "_output_shapes"
      value {
        list {
          shape {
            dim {
              size: 784
            }
            dim {
              size: 10
            }
          }
        }
      }
    }
    attr {
      key: "use_locking"
      value {
        b: true
      }
    }
    attr {
      key: "validate_shape"
      value {
        b: true
      }
    }
  }
  node {
    name: "save/RestoreV2_1/tensor_names"
    op: "Const"
    attr {
      key: "_output_shapes"
      value {
        list {
          shape {
            dim {
              size: 1
            }
          }
        }
      }
    }
    attr {
      key: "dtype"
      value {
        type: DT_STRING
      }
    }
    attr {
      key: "value"
      value {
        tensor {
          dtype: DT_STRING
          tensor_shape {
            dim {
              size: 1
            }
          }
          string_val: "Variable_1"
        }
      }
    }
  }
  node {
    name: "save/RestoreV2_1/shape_and_slices"
    op: "Const"
    attr {
      key: "_output_shapes"
      value {
        list {
          shape {
            dim {
              size: 1
            }
          }
        }
      }
    }
    attr {
      key: "dtype"
      value {
        type: DT_STRING
      }
    }
    attr {
      key: "value"
      value {
        tensor {
          dtype: DT_STRING
          tensor_shape {
            dim {
              size: 1
            }
          }
          string_val: ""
        }
      }
    }
  }
  node {
    name: "save/RestoreV2_1"
    op: "RestoreV2"
    input: "save/Const"
    input: "save/RestoreV2_1/tensor_names"
    input: "save/RestoreV2_1/shape_and_slices"
    attr {
      key: "_output_shapes"
      value {
        list {
          shape {
            unknown_rank: true
          }
        }
      }
    }
    attr {
      key: "dtypes"
      value {
        list {
          type: DT_FLOAT
        }
      }
    }
  }
  node {
    name: "save/Assign_1"
    op: "Assign"
    input: "Variable_1"
    input: "save/RestoreV2_1"
    attr {
      key: "T"
      value {
        type: DT_FLOAT
      }
    }
    attr {
      key: "_class"
      value {
        list {
          s: "loc:@Variable_1"
        }
      }
    }
    attr {
      key: "_output_shapes"
      value {
        list {
          shape {
            dim {
              size: 10
            }
          }
        }
      }
    }
    attr {
      key: "use_locking"
      value {
        b: true
      }
    }
    attr {
      key: "validate_shape"
      value {
        b: true
      }
    }
  }
  node {
    name: "save/restore_all"
    op: "NoOp"
    input: "^save/Assign"
    input: "^save/Assign_1"
  }
  node {
    name: "init"
    op: "NoOp"
    input: "^Variable/Assign"
    input: "^Variable_1/Assign"
  }
  versions {
    producer: 21
  }
}
saver_def {
  filename_tensor_name: "save/Const:0"
  save_tensor_name: "save/control_dependency:0"
  restore_op_name: "save/restore_all"
  max_to_keep: 5
  keep_checkpoint_every_n_hours: 10000.0
  version: V2
}
collection_def {
  key: "train_op"
  value {
    node_list {
      value: "GradientDescent"
    }
  }
}
collection_def {
  key: "trainable_variables"
  value {
    bytes_list {
      value: "\n\nVariable:0\022\017Variable/Assign\032\017Variable/read:0"
      value: "\n\014Variable_1:0\022\021Variable_1/Assign\032\021Variable_1/read:0"
    }
  }
}
collection_def {
  key: "variables"
  value {
    bytes_list {
      value: "\n\nVariable:0\022\017Variable/Assign\032\017Variable/read:0"
      value: "\n\014Variable_1:0\022\021Variable_1/Assign\032\021Variable_1/read:0"
    }
  }
}
collection_def {
  key: "x"
  value {
    node_list {
      value: "Placeholder:0"
    }
  }
}
collection_def {
  key: "y"
  value {
    node_list {
      value: "add:0"
    }
  }
}
collection_def {
  key: "y_"
  value {
    node_list {
      value: "add:0"
    }
  }
}

  }
  node {
    name: "Variable_2"
    op: "VariableV2"
    attr {
      key: "_output_shapes"
      value {
        list {
          shape {
            dim {
              size: 784
            }
            dim {
              size: 10
            }
          }
        }
      }
    }
    attr {
      key: "container"
      value {
        s: ""
      }
    }
    attr {
      key: "dtype"
      value {
        type: DT_FLOAT
      }
    }
    attr {
      key: "shape"
      value {
        shape {
          dim {
            size: 784
          }
          dim {
            size: 10
          }
        }
      }
    }
    attr {
      key: "shared_name"
      value {
        s: ""
      }
    }
  }
  node {
    name: "Variable/Assign_1"
    op: "Assign"
    input: "Variable_2"
    input: "zeros_2"
    attr {
      key: "T"
      value {
        type: DT_FLOAT
      }
    }
    attr {
      key: "_class"
      value {
        list {
          s: "loc:@Variable_2"
        }
      }
    }
    attr {
      key: "_output_shapes"
      value {
        list {
          shape {
            dim {
              size: 784
            }
            dim {
              size: 10
            }
          }
        }
      }
    }
    attr {
      key: "use_locking"
      value {
        b: true
      }
    }
    attr {
      key: "validate_shape"
      value {
        b: true
      }
    }
  }
  node {
    name: "Variable/read_1"
    op: "Identity"
    input: "Variable_2"
    attr {
      key: "T"
      value {
        type: DT_FLOAT
      }
    }
    attr {
      key: "_class"
      value {
        list {
          s: "loc:@Variable_2"
        }
      }
    }
    attr {
      key: "_output_shapes"
      value {
        list {
          shape {
            dim {
              size: 784
            }
            dim {
              size: 10
            }
          }
        }
      }
    }
  }
  node {
    name: "zeros_1_1"
    op: "Const"
    attr {
      key: "_output_shapes"
      value {
        list {
          shape {
            dim {
              size: 10
            }
          }
        }
      }
    }
    attr {
      key: "dtype"
      value {
        type: DT_FLOAT
      }
    }
    attr {
      key: "value"
      value {
        tensor {
          dtype: DT_FLOAT
          tensor_shape {
            dim {
              size: 10
            }
          }
          float_val: 0.0
        }
      }
    }
  }
  node {
    name: "Variable_1_1"
    op: "VariableV2"
    attr {
      key: "_output_shapes"
      value {
        list {
          shape {
            dim {
              size: 10
            }
          }
        }
      }
    }
    attr {
      key: "container"
      value {
        s: ""
      }
    }
    attr {
      key: "dtype"
      value {
        type: DT_FLOAT
      }
    }
    attr {
      key: "shape"
      value {
        shape {
          dim {
            size: 10
          }
        }
      }
    }
    attr {
      key: "shared_name"
      value {
        s: ""
      }
    }
  }
  node {
    name: "Variable_1/Assign_1"
    op: "Assign"
    input: "Variable_1_1"
    input: "zeros_1_1"
    attr {
      key: "T"
      value {
        type: DT_FLOAT
      }
    }
    attr {
      key: "_class"
      value {
        list {
          s: "loc:@Variable_1_1"
        }
      }
    }
    attr {
      key: "_output_shapes"
      value {
        list {
          shape {
            dim {
              size: 10
            }
          }
        }
      }
    }
    attr {
      key: "use_locking"
      value {
        b: true
      }
    }
    attr {
      key: "validate_shape"
      value {
        b: true
      }
    }
  }
  node {
    name: "Variable_1/read_1"
    op: "Identity"
    input: "Variable_1_1"
    attr {
      key: "T"
      value {
        type: DT_FLOAT
      }
    }
    attr {
      key: "_class"
      value {
        list {
          s: "loc:@Variable_1_1"
        }
      }
    }
    attr {
      key: "_output_shapes"
      value {
        list {
          shape {
            dim {
              size: 10
            }
          }
        }
      }
    }
  }
  node {
    name: "MatMul_1"
    op: "MatMul"
    input: "Placeholder_2"
    input: "Variable/read_1"
    attr {
      key: "T"
      value {
        type: DT_FLOAT
      }
    }
    attr {
      key: "_output_shapes"
      value {
        list {
          shape {
            dim {
              size: -1
            }
            dim {
              size: 10
            }
          }
        }
      }
    }
    attr {
      key: "transpose_a"
      value {
        b: false
      }
    }
    attr {
      key: "transpose_b"
      value {
        b: false
      }
    }
  }
  node {
    name: "add_1"
    op: "Add"
    input: "MatMul_1"
    input: "Variable_1/read_1"
    attr {
      key: "T"
      value {
        type: DT_FLOAT
      }
    }
    attr {
      key: "_output_shapes"
      value {
        list {
          shape {
            dim {
              size: -1
            }
            dim {
              size: 10
            }
          }
        }
      }
    }
  }
  node {
    name: "Placeholder_1_1"
    op: "Placeholder"
    attr {
      key: "_output_shapes"
      value {
        list {
          shape {
            dim {
              size: -1
            }
            dim {
              size: 10
            }
          }
        }
      }
    }
    attr {
      key: "dtype"
      value {
        type: DT_FLOAT
      }
    }
    attr {
      key: "shape"
      value {
        shape {
        }
      }
    }
  }
  node {
    name: "Rank_3"
    op: "Const"
    attr {
      key: "_output_shapes"
      value {
        list {
          shape {
          }
        }
      }
    }
    attr {
      key: "dtype"
      value {
        type: DT_INT32
      }
    }
    attr {
      key: "value"
      value {
        tensor {
          dtype: DT_INT32
          tensor_shape {
          }
          int_val: 2
        }
      }
    }
  }
  node {
    name: "Shape_3"
    op: "Shape"
    input: "add_1"
    attr {
      key: "T"
      value {
        type: DT_FLOAT
      }
    }
    attr {
      key: "_output_shapes"
      value {
        list {
          shape {
            dim {
              size: 2
            }
          }
        }
      }
    }
    attr {
      key: "out_type"
      value {
        type: DT_INT32
      }
    }
  }
  node {
    name: "Rank_1_1"
    op: "Const"
    attr {
      key: "_output_shapes"
      value {
        list {
          shape {
          }
        }
      }
    }
    attr {
      key: "dtype"
      value {
        type: DT_INT32
      }
    }
    attr {
      key: "value"
      value {
        tensor {
          dtype: DT_INT32
          tensor_shape {
          }
          int_val: 2
        }
      }
    }
  }
  node {
    name: "Shape_1_1"
    op: "Shape"
    input: "add_1"
    attr {
      key: "T"
      value {
        type: DT_FLOAT
      }
    }
    attr {
      key: "_output_shapes"
      value {
        list {
          shape {
            dim {
              size: 2
            }
          }
        }
      }
    }
    attr {
      key: "out_type"
      value {
        type: DT_INT32
      }
    }
  }
  node {
    name: "Sub/y_1"
    op: "Const"
    attr {
      key: "_output_shapes"
      value {
        list {
          shape {
          }
        }
      }
    }
    attr {
      key: "dtype"
      value {
        type: DT_INT32
      }
    }
    attr {
      key: "value"
      value {
        tensor {
          dtype: DT_INT32
          tensor_shape {
          }
          int_val: 1
        }
      }
    }
  }
  node {
    name: "Sub_3"
    op: "Sub"
    input: "Rank_1_1"
    input: "Sub/y_1"
    attr {
      key: "T"
      value {
        type: DT_INT32
      }
    }
    attr {
      key: "_output_shapes"
      value {
        list {
          shape {
          }
        }
      }
    }
  }
  node {
    name: "Slice/begin_1"
    op: "Pack"
    input: "Sub_3"
    attr {
      key: "N"
      value {
        i: 1
      }
    }
    attr {
      key: "T"
      value {
        type: DT_INT32
      }
    }
    attr {
      key: "_output_shapes"
      value {
        list {
          shape {
            dim {
              size: 1
            }
          }
        }
      }
    }
    attr {
      key: "axis"
      value {
        i: 0
      }
    }
  }
  node {
    name: "Slice/size_1"
    op: "Const"
    attr {
      key: "_output_shapes"
      value {
        list {
          shape {
            dim {
              size: 1
            }
          }
        }
      }
    }
    attr {
      key: "dtype"
      value {
        type: DT_INT32
      }
    }
    attr {
      key: "value"
      value {
        tensor {
          dtype: DT_INT32
          tensor_shape {
            dim {
              size: 1
            }
          }
          int_val: 1
        }
      }
    }
  }
  node {
    name: "Slice_3"
    op: "Slice"
    input: "Shape_1_1"
    input: "Slice/begin_1"
    input: "Slice/size_1"
    attr {
      key: "Index"
      value {
        type: DT_INT32
      }
    }
    attr {
      key: "T"
      value {
        type: DT_INT32
      }
    }
    attr {
      key: "_output_shapes"
      value {
        list {
          shape {
            dim {
              size: 1
            }
          }
        }
      }
    }
  }
  node {
    name: "concat/values_0_1"
    op: "Const"
    attr {
      key: "_output_shapes"
      value {
        list {
          shape {
            dim {
              size: 1
            }
          }
        }
      }
    }
    attr {
      key: "dtype"
      value {
        type: DT_INT32
      }
    }
    attr {
      key: "value"
      value {
        tensor {
          dtype: DT_INT32
          tensor_shape {
            dim {
              size: 1
            }
          }
          int_val: -1
        }
      }
    }
  }
  node {
    name: "concat/axis_1"
    op: "Const"
    attr {
      key: "_output_shapes"
      value {
        list {
          shape {
          }
        }
      }
    }
    attr {
      key: "dtype"
      value {
        type: DT_INT32
      }
    }
    attr {
      key: "value"
      value {
        tensor {
          dtype: DT_INT32
          tensor_shape {
          }
          int_val: 0
        }
      }
    }
  }
  node {
    name: "concat_2"
    op: "ConcatV2"
    input: "concat/values_0_1"
    input: "Slice_3"
    input: "concat/axis_1"
    attr {
      key: "N"
      value {
        i: 2
      }
    }
    attr {
      key: "T"
      value {
        type: DT_INT32
      }
    }
    attr {
      key: "Tidx"
      value {
        type: DT_INT32
      }
    }
    attr {
      key: "_output_shapes"
      value {
        list {
          shape {
            dim {
              size: 2
            }
          }
        }
      }
    }
  }
  node {
    name: "Reshape_3"
    op: "Reshape"
    input: "add_1"
    input: "concat_2"
    attr {
      key: "T"
      value {
        type: DT_FLOAT
      }
    }
    attr {
      key: "Tshape"
      value {
        type: DT_INT32
      }
    }
    attr {
      key: "_output_shapes"
      value {
        list {
          shape {
            dim {
              size: -1
            }
            dim {
              size: -1
            }
          }
        }
      }
    }
  }
  node {
    name: "Rank_2_1"
    op: "Const"
    attr {
      key: "_output_shapes"
      value {
        list {
          shape {
          }
        }
      }
    }
    attr {
      key: "dtype"
      value {
        type: DT_INT32
      }
    }
    attr {
      key: "value"
      value {
        tensor {
          dtype: DT_INT32
          tensor_shape {
          }
          int_val: 2
        }
      }
    }
  }
  node {
    name: "Shape_2_1"
    op: "Shape"
    input: "Placeholder_1_1"
    attr {
      key: "T"
      value {
        type: DT_FLOAT
      }
    }
    attr {
      key: "_output_shapes"
      value {
        list {
          shape {
            dim {
              size: 2
            }
          }
        }
      }
    }
    attr {
      key: "out_type"
      value {
        type: DT_INT32
      }
    }
  }
  node {
    name: "Sub_1/y_1"
    op: "Const"
    attr {
      key: "_output_shapes"
      value {
        list {
          shape {
          }
        }
      }
    }
    attr {
      key: "dtype"
      value {
        type: DT_INT32
      }
    }
    attr {
      key: "value"
      value {
        tensor {
          dtype: DT_INT32
          tensor_shape {
          }
          int_val: 1
        }
      }
    }
  }
  node {
    name: "Sub_1_1"
    op: "Sub"
    input: "Rank_2_1"
    input: "Sub_1/y_1"
    attr {
      key: "T"
      value {
        type: DT_INT32
      }
    }
    attr {
      key: "_output_shapes"
      value {
        list {
          shape {
          }
        }
      }
    }
  }
  node {
    name: "Slice_1/begin_1"
    op: "Pack"
    input: "Sub_1_1"
    attr {
      key: "N"
      value {
        i: 1
      }
    }
    attr {
      key: "T"
      value {
        type: DT_INT32
      }
    }
    attr {
      key: "_output_shapes"
      value {
        list {
          shape {
            dim {
              size: 1
            }
          }
        }
      }
    }
    attr {
      key: "axis"
      value {
        i: 0
      }
    }
  }
  node {
    name: "Slice_1/size_1"
    op: "Const"
    attr {
      key: "_output_shapes"
      value {
        list {
          shape {
            dim {
              size: 1
            }
          }
        }
      }
    }
    attr {
      key: "dtype"
      value {
        type: DT_INT32
      }
    }
    attr {
      key: "value"
      value {
        tensor {
          dtype: DT_INT32
          tensor_shape {
            dim {
              size: 1
            }
          }
          int_val: 1
        }
      }
    }
  }
  node {
    name: "Slice_1_1"
    op: "Slice"
    input: "Shape_2_1"
    input: "Slice_1/begin_1"
    input: "Slice_1/size_1"
    attr {
      key: "Index"
      value {
        type: DT_INT32
      }
    }
    attr {
      key: "T"
      value {
        type: DT_INT32
      }
    }
    attr {
      key: "_output_shapes"
      value {
        list {
          shape {
            dim {
              size: 1
            }
          }
        }
      }
    }
  }
  node {
    name: "concat_1/values_0_1"
    op: "Const"
    attr {
      key: "_output_shapes"
      value {
        list {
          shape {
            dim {
              size: 1
            }
          }
        }
      }
    }
    attr {
      key: "dtype"
      value {
        type: DT_INT32
      }
    }
    attr {
      key: "value"
      value {
        tensor {
          dtype: DT_INT32
          tensor_shape {
            dim {
              size: 1
            }
          }
          int_val: -1
        }
      }
    }
  }
  node {
    name: "concat_1/axis_1"
    op: "Const"
    attr {
      key: "_output_shapes"
      value {
        list {
          shape {
          }
        }
      }
    }
    attr {
      key: "dtype"
      value {
        type: DT_INT32
      }
    }
    attr {
      key: "value"
      value {
        tensor {
          dtype: DT_INT32
          tensor_shape {
          }
          int_val: 0
        }
      }
    }
  }
  node {
    name: "concat_1_1"
    op: "ConcatV2"
    input: "concat_1/values_0_1"
    input: "Slice_1_1"
    input: "concat_1/axis_1"
    attr {
      key: "N"
      value {
        i: 2
      }
    }
    attr {
      key: "T"
      value {
        type: DT_INT32
      }
    }
    attr {
      key: "Tidx"
      value {
        type: DT_INT32
      }
    }
    attr {
      key: "_output_shapes"
      value {
        list {
          shape {
            dim {
              size: 2
            }
          }
        }
      }
    }
  }
  node {
    name: "Reshape_1_1"
    op: "Reshape"
    input: "Placeholder_1_1"
    input: "concat_1_1"
    attr {
      key: "T"
      value {
        type: DT_FLOAT
      }
    }
    attr {
      key: "Tshape"
      value {
        type: DT_INT32
      }
    }
    attr {
      key: "_output_shapes"
      value {
        list {
          shape {
            dim {
              size: -1
            }
            dim {
              size: -1
            }
          }
        }
      }
    }
  }
  node {
    name: "SoftmaxCrossEntropyWithLogits_1"
    op: "SoftmaxCrossEntropyWithLogits"
    input: "Reshape_3"
    input: "Reshape_1_1"
    attr {
      key: "T"
      value {
        type: DT_FLOAT
      }
    }
    attr {
      key: "_output_shapes"
      value {
        list {
          shape {
            dim {
              size: -1
            }
          }
          shape {
            dim {
              size: -1
            }
            dim {
              size: -1
            }
          }
        }
      }
    }
  }
  node {
    name: "Sub_2/y_1"
    op: "Const"
    attr {
      key: "_output_shapes"
      value {
        list {
          shape {
          }
        }
      }
    }
    attr {
      key: "dtype"
      value {
        type: DT_INT32
      }
    }
    attr {
      key: "value"
      value {
        tensor {
          dtype: DT_INT32
          tensor_shape {
          }
          int_val: 1
        }
      }
    }
  }
  node {
    name: "Sub_2_1"
    op: "Sub"
    input: "Rank_3"
    input: "Sub_2/y_1"
    attr {
      key: "T"
      value {
        type: DT_INT32
      }
    }
    attr {
      key: "_output_shapes"
      value {
        list {
          shape {
          }
        }
      }
    }
  }
  node {
    name: "Slice_2/begin_1"
    op: "Const"
    attr {
      key: "_output_shapes"
      value {
        list {
          shape {
            dim {
              size: 1
            }
          }
        }
      }
    }
    attr {
      key: "dtype"
      value {
        type: DT_INT32
      }
    }
    attr {
      key: "value"
      value {
        tensor {
          dtype: DT_INT32
          tensor_shape {
            dim {
              size: 1
            }
          }
          int_val: 0
        }
      }
    }
  }
  node {
    name: "Slice_2/size_1"
    op: "Pack"
    input: "Sub_2_1"
    attr {
      key: "N"
      value {
        i: 1
      }
    }
    attr {
      key: "T"
      value {
        type: DT_INT32
      }
    }
    attr {
      key: "_output_shapes"
      value {
        list {
          shape {
            dim {
              size: 1
            }
          }
        }
      }
    }
    attr {
      key: "axis"
      value {
        i: 0
      }
    }
  }
  node {
    name: "Slice_2_1"
    op: "Slice"
    input: "Shape_3"
    input: "Slice_2/begin_1"
    input: "Slice_2/size_1"
    attr {
      key: "Index"
      value {
        type: DT_INT32
      }
    }
    attr {
      key: "T"
      value {
        type: DT_INT32
      }
    }
    attr {
      key: "_output_shapes"
      value {
        list {
          shape {
            dim {
              size: -1
            }
          }
        }
      }
    }
  }
  node {
    name: "Reshape_2_1"
    op: "Reshape"
    input: "SoftmaxCrossEntropyWithLogits_1"
    input: "Slice_2_1"
    attr {
      key: "T"
      value {
        type: DT_FLOAT
      }
    }
    attr {
      key: "Tshape"
      value {
        type: DT_INT32
      }
    }
    attr {
      key: "_output_shapes"
      value {
        list {
          shape {
            dim {
              size: -1
            }
          }
        }
      }
    }
  }
  node {
    name: "Const_1"
    op: "Const"
    attr {
      key: "_output_shapes"
      value {
        list {
          shape {
            dim {
              size: 1
            }
          }
        }
      }
    }
    attr {
      key: "dtype"
      value {
        type: DT_INT32
      }
    }
    attr {
      key: "value"
      value {
        tensor {
          dtype: DT_INT32
          tensor_shape {
            dim {
              size: 1
            }
          }
          int_val: 0
        }
      }
    }
  }
  node {
    name: "Mean_1"
    op: "Mean"
    input: "Reshape_2_1"
    input: "Const_1"
    attr {
      key: "T"
      value {
        type: DT_FLOAT
      }
    }
    attr {
      key: "Tidx"
      value {
        type: DT_INT32
      }
    }
    attr {
      key: "_output_shapes"
      value {
        list {
          shape {
          }
        }
      }
    }
    attr {
      key: "keep_dims"
      value {
        b: false
      }
    }
  }
  node {
    name: "gradients/Shape_1"
    op: "Const"
    attr {
      key: "_output_shapes"
      value {
        list {
          shape {
            dim {
            }
          }
        }
      }
    }
    attr {
      key: "dtype"
      value {
        type: DT_INT32
      }
    }
    attr {
      key: "value"
      value {
        tensor {
          dtype: DT_INT32
          tensor_shape {
            dim {
            }
          }
        }
      }
    }
  }
  node {
    name: "gradients/Const_1"
    op: "Const"
    attr {
      key: "_output_shapes"
      value {
        list {
          shape {
          }
        }
      }
    }
    attr {
      key: "dtype"
      value {
        type: DT_FLOAT
      }
    }
    attr {
      key: "value"
      value {
        tensor {
          dtype: DT_FLOAT
          tensor_shape {
          }
          float_val: 1.0
        }
      }
    }
  }
  node {
    name: "gradients/Fill_1"
    op: "Fill"
    input: "gradients/Shape_1"
    input: "gradients/Const_1"
    attr {
      key: "T"
      value {
        type: DT_FLOAT
      }
    }
    attr {
      key: "_output_shapes"
      value {
        list {
          shape {
          }
        }
      }
    }
  }
  node {
    name: "gradients/Mean_grad/Reshape/shape_1"
    op: "Const"
    attr {
      key: "_output_shapes"
      value {
        list {
          shape {
            dim {
              size: 1
            }
          }
        }
      }
    }
    attr {
      key: "dtype"
      value {
        type: DT_INT32
      }
    }
    attr {
      key: "value"
      value {
        tensor {
          dtype: DT_INT32
          tensor_shape {
            dim {
              size: 1
            }
          }
          int_val: 1
        }
      }
    }
  }
  node {
    name: "gradients/Mean_grad/Reshape_1"
    op: "Reshape"
    input: "gradients/Fill_1"
    input: "gradients/Mean_grad/Reshape/shape_1"
    attr {
      key: "T"
      value {
        type: DT_FLOAT
      }
    }
    attr {
      key: "Tshape"
      value {
        type: DT_INT32
      }
    }
    attr {
      key: "_output_shapes"
      value {
        list {
          shape {
            dim {
              size: 1
            }
          }
        }
      }
    }
  }
  node {
    name: "gradients/Mean_grad/Shape_3"
    op: "Shape"
    input: "Reshape_2_1"
    attr {
      key: "T"
      value {
        type: DT_FLOAT
      }
    }
    attr {
      key: "_output_shapes"
      value {
        list {
          shape {
            dim {
              size: 1
            }
          }
        }
      }
    }
    attr {
      key: "out_type"
      value {
        type: DT_INT32
      }
    }
  }
  node {
    name: "gradients/Mean_grad/Tile_1"
    op: "Tile"
    input: "gradients/Mean_grad/Reshape_1"
    input: "gradients/Mean_grad/Shape_3"
    attr {
      key: "T"
      value {
        type: DT_FLOAT
      }
    }
    attr {
      key: "Tmultiples"
      value {
        type: DT_INT32
      }
    }
    attr {
      key: "_output_shapes"
      value {
        list {
          shape {
            dim {
              size: -1
            }
          }
        }
      }
    }
  }
  node {
    name: "gradients/Mean_grad/Shape_1_1"
    op: "Shape"
    input: "Reshape_2_1"
    attr {
      key: "T"
      value {
        type: DT_FLOAT
      }
    }
    attr {
      key: "_output_shapes"
      value {
        list {
          shape {
            dim {
              size: 1
            }
          }
        }
      }
    }
    attr {
      key: "out_type"
      value {
        type: DT_INT32
      }
    }
  }
  node {
    name: "gradients/Mean_grad/Shape_2_1"
    op: "Const"
    attr {
      key: "_output_shapes"
      value {
        list {
          shape {
            dim {
            }
          }
        }
      }
    }
    attr {
      key: "dtype"
      value {
        type: DT_INT32
      }
    }
    attr {
      key: "value"
      value {
        tensor {
          dtype: DT_INT32
          tensor_shape {
            dim {
            }
          }
        }
      }
    }
  }
  node {
    name: "gradients/Mean_grad/Const_2"
    op: "Const"
    attr {
      key: "_output_shapes"
      value {
        list {
          shape {
            dim {
              size: 1
            }
          }
        }
      }
    }
    attr {
      key: "dtype"
      value {
        type: DT_INT32
      }
    }
    attr {
      key: "value"
      value {
        tensor {
          dtype: DT_INT32
          tensor_shape {
            dim {
              size: 1
            }
          }
          int_val: 0
        }
      }
    }
  }
  node {
    name: "gradients/Mean_grad/Prod_2"
    op: "Prod"
    input: "gradients/Mean_grad/Shape_1_1"
    input: "gradients/Mean_grad/Const_2"
    attr {
      key: "T"
      value {
        type: DT_INT32
      }
    }
    attr {
      key: "Tidx"
      value {
        type: DT_INT32
      }
    }
    attr {
      key: "_output_shapes"
      value {
        list {
          shape {
          }
        }
      }
    }
    attr {
      key: "keep_dims"
      value {
        b: false
      }
    }
  }
  node {
    name: "gradients/Mean_grad/Const_1_1"
    op: "Const"
    attr {
      key: "_output_shapes"
      value {
        list {
          shape {
            dim {
              size: 1
            }
          }
        }
      }
    }
    attr {
      key: "dtype"
      value {
        type: DT_INT32
      }
    }
    attr {
      key: "value"
      value {
        tensor {
          dtype: DT_INT32
          tensor_shape {
            dim {
              size: 1
            }
          }
          int_val: 0
        }
      }
    }
  }
  node {
    name: "gradients/Mean_grad/Prod_1_1"
    op: "Prod"
    input: "gradients/Mean_grad/Shape_2_1"
    input: "gradients/Mean_grad/Const_1_1"
    attr {
      key: "T"
      value {
        type: DT_INT32
      }
    }
    attr {
      key: "Tidx"
      value {
        type: DT_INT32
      }
    }
    attr {
      key: "_output_shapes"
      value {
        list {
          shape {
          }
        }
      }
    }
    attr {
      key: "keep_dims"
      value {
        b: false
      }
    }
  }
  node {
    name: "gradients/Mean_grad/Maximum/y_1"
    op: "Const"
    attr {
      key: "_output_shapes"
      value {
        list {
          shape {
          }
        }
      }
    }
    attr {
      key: "dtype"
      value {
        type: DT_INT32
      }
    }
    attr {
      key: "value"
      value {
        tensor {
          dtype: DT_INT32
          tensor_shape {
          }
          int_val: 1
        }
      }
    }
  }
  node {
    name: "gradients/Mean_grad/Maximum_1"
    op: "Maximum"
    input: "gradients/Mean_grad/Prod_1_1"
    input: "gradients/Mean_grad/Maximum/y_1"
    attr {
      key: "T"
      value {
        type: DT_INT32
      }
    }
    attr {
      key: "_output_shapes"
      value {
        list {
          shape {
          }
        }
      }
    }
  }
  node {
    name: "gradients/Mean_grad/floordiv_1"
    op: "FloorDiv"
    input: "gradients/Mean_grad/Prod_2"
    input: "gradients/Mean_grad/Maximum_1"
    attr {
      key: "T"
      value {
        type: DT_INT32
      }
    }
    attr {
      key: "_output_shapes"
      value {
        list {
          shape {
          }
        }
      }
    }
  }
  node {
    name: "gradients/Mean_grad/Cast_1"
    op: "Cast"
    input: "gradients/Mean_grad/floordiv_1"
    attr {
      key: "DstT"
      value {
        type: DT_FLOAT
      }
    }
    attr {
      key: "SrcT"
      value {
        type: DT_INT32
      }
    }
    attr {
      key: "_output_shapes"
      value {
        list {
          shape {
          }
        }
      }
    }
  }
  node {
    name: "gradients/Mean_grad/truediv_1"
    op: "RealDiv"
    input: "gradients/Mean_grad/Tile_1"
    input: "gradients/Mean_grad/Cast_1"
    attr {
      key: "T"
      value {
        type: DT_FLOAT
      }
    }
    attr {
      key: "_output_shapes"
      value {
        list {
          shape {
            dim {
              size: -1
            }
          }
        }
      }
    }
  }
  node {
    name: "gradients/Reshape_2_grad/Shape_1"
    op: "Shape"
    input: "SoftmaxCrossEntropyWithLogits_1"
    attr {
      key: "T"
      value {
        type: DT_FLOAT
      }
    }
    attr {
      key: "_output_shapes"
      value {
        list {
          shape {
            dim {
              size: 1
            }
          }
        }
      }
    }
    attr {
      key: "out_type"
      value {
        type: DT_INT32
      }
    }
  }
  node {
    name: "gradients/Reshape_2_grad/Reshape_1"
    op: "Reshape"
    input: "gradients/Mean_grad/truediv_1"
    input: "gradients/Reshape_2_grad/Shape_1"
    attr {
      key: "T"
      value {
        type: DT_FLOAT
      }
    }
    attr {
      key: "Tshape"
      value {
        type: DT_INT32
      }
    }
    attr {
      key: "_output_shapes"
      value {
        list {
          shape {
            dim {
              size: -1
            }
          }
        }
      }
    }
  }
  node {
    name: "gradients/zeros_like_1"
    op: "ZerosLike"
    input: "SoftmaxCrossEntropyWithLogits_1:1"
    attr {
      key: "T"
      value {
        type: DT_FLOAT
      }
    }
    attr {
      key: "_output_shapes"
      value {
        list {
          shape {
            dim {
              size: -1
            }
            dim {
              size: -1
            }
          }
        }
      }
    }
  }
  node {
    name: "gradients/SoftmaxCrossEntropyWithLogits_grad/PreventGradient_1"
    op: "PreventGradient"
    input: "SoftmaxCrossEntropyWithLogits_1:1"
    attr {
      key: "T"
      value {
        type: DT_FLOAT
      }
    }
    attr {
      key: "_output_shapes"
      value {
        list {
          shape {
            dim {
              size: -1
            }
            dim {
              size: -1
            }
          }
        }
      }
    }
  }
  node {
    name: "gradients/SoftmaxCrossEntropyWithLogits_grad/ExpandDims/dim_1"
    op: "Const"
    attr {
      key: "_output_shapes"
      value {
        list {
          shape {
          }
        }
      }
    }
    attr {
      key: "dtype"
      value {
        type: DT_INT32
      }
    }
    attr {
      key: "value"
      value {
        tensor {
          dtype: DT_INT32
          tensor_shape {
          }
          int_val: -1
        }
      }
    }
  }
  node {
    name: "gradients/SoftmaxCrossEntropyWithLogits_grad/ExpandDims_1"
    op: "ExpandDims"
    input: "gradients/Reshape_2_grad/Reshape_1"
    input: "gradients/SoftmaxCrossEntropyWithLogits_grad/ExpandDims/dim_1"
    attr {
      key: "T"
      value {
        type: DT_FLOAT
      }
    }
    attr {
      key: "Tdim"
      value {
        type: DT_INT32
      }
    }
    attr {
      key: "_output_shapes"
      value {
        list {
          shape {
            dim {
              size: -1
            }
            dim {
              size: 1
            }
          }
        }
      }
    }
  }
  node {
    name: "gradients/SoftmaxCrossEntropyWithLogits_grad/mul_1"
    op: "Mul"
    input: "gradients/SoftmaxCrossEntropyWithLogits_grad/ExpandDims_1"
    input: "gradients/SoftmaxCrossEntropyWithLogits_grad/PreventGradient_1"
    attr {
      key: "T"
      value {
        type: DT_FLOAT
      }
    }
    attr {
      key: "_output_shapes"
      value {
        list {
          shape {
            dim {
              size: -1
            }
            dim {
              size: -1
            }
          }
        }
      }
    }
  }
  node {
    name: "gradients/Reshape_grad/Shape_1"
    op: "Shape"
    input: "add_1"
    attr {
      key: "T"
      value {
        type: DT_FLOAT
      }
    }
    attr {
      key: "_output_shapes"
      value {
        list {
          shape {
            dim {
              size: 2
            }
          }
        }
      }
    }
    attr {
      key: "out_type"
      value {
        type: DT_INT32
      }
    }
  }
  node {
    name: "gradients/Reshape_grad/Reshape_1"
    op: "Reshape"
    input: "gradients/SoftmaxCrossEntropyWithLogits_grad/mul_1"
    input: "gradients/Reshape_grad/Shape_1"
    attr {
      key: "T"
      value {
        type: DT_FLOAT
      }
    }
    attr {
      key: "Tshape"
      value {
        type: DT_INT32
      }
    }
    attr {
      key: "_output_shapes"
      value {
        list {
          shape {
            dim {
              size: -1
            }
            dim {
              size: 10
            }
          }
        }
      }
    }
  }
  node {
    name: "gradients/add_grad/Shape_2"
    op: "Shape"
    input: "MatMul_1"
    attr {
      key: "T"
      value {
        type: DT_FLOAT
      }
    }
    attr {
      key: "_output_shapes"
      value {
        list {
          shape {
            dim {
              size: 2
            }
          }
        }
      }
    }
    attr {
      key: "out_type"
      value {
        type: DT_INT32
      }
    }
  }
  node {
    name: "gradients/add_grad/Shape_1_1"
    op: "Const"
    attr {
      key: "_output_shapes"
      value {
        list {
          shape {
            dim {
              size: 1
            }
          }
        }
      }
    }
    attr {
      key: "dtype"
      value {
        type: DT_INT32
      }
    }
    attr {
      key: "value"
      value {
        tensor {
          dtype: DT_INT32
          tensor_shape {
            dim {
              size: 1
            }
          }
          int_val: 10
        }
      }
    }
  }
  node {
    name: "gradients/add_grad/BroadcastGradientArgs_1"
    op: "BroadcastGradientArgs"
    input: "gradients/add_grad/Shape_2"
    input: "gradients/add_grad/Shape_1_1"
    attr {
      key: "T"
      value {
        type: DT_INT32
      }
    }
    attr {
      key: "_output_shapes"
      value {
        list {
          shape {
            dim {
              size: -1
            }
          }
          shape {
            dim {
              size: -1
            }
          }
        }
      }
    }
  }
  node {
    name: "gradients/add_grad/Sum_2"
    op: "Sum"
    input: "gradients/Reshape_grad/Reshape_1"
    input: "gradients/add_grad/BroadcastGradientArgs_1"
    attr {
      key: "T"
      value {
        type: DT_FLOAT
      }
    }
    attr {
      key: "Tidx"
      value {
        type: DT_INT32
      }
    }
    attr {
      key: "_output_shapes"
      value {
        list {
          shape {
            unknown_rank: true
          }
        }
      }
    }
    attr {
      key: "keep_dims"
      value {
        b: false
      }
    }
  }
  node {
    name: "gradients/add_grad/Reshape_2"
    op: "Reshape"
    input: "gradients/add_grad/Sum_2"
    input: "gradients/add_grad/Shape_2"
    attr {
      key: "T"
      value {
        type: DT_FLOAT
      }
    }
    attr {
      key: "Tshape"
      value {
        type: DT_INT32
      }
    }
    attr {
      key: "_output_shapes"
      value {
        list {
          shape {
            dim {
              size: -1
            }
            dim {
              size: 10
            }
          }
        }
      }
    }
  }
  node {
    name: "gradients/add_grad/Sum_1_1"
    op: "Sum"
    input: "gradients/Reshape_grad/Reshape_1"
    input: "gradients/add_grad/BroadcastGradientArgs_1:1"
    attr {
      key: "T"
      value {
        type: DT_FLOAT
      }
    }
    attr {
      key: "Tidx"
      value {
        type: DT_INT32
      }
    }
    attr {
      key: "_output_shapes"
      value {
        list {
          shape {
            unknown_rank: true
          }
        }
      }
    }
    attr {
      key: "keep_dims"
      value {
        b: false
      }
    }
  }
  node {
    name: "gradients/add_grad/Reshape_1_1"
    op: "Reshape"
    input: "gradients/add_grad/Sum_1_1"
    input: "gradients/add_grad/Shape_1_1"
    attr {
      key: "T"
      value {
        type: DT_FLOAT
      }
    }
    attr {
      key: "Tshape"
      value {
        type: DT_INT32
      }
    }
    attr {
      key: "_output_shapes"
      value {
        list {
          shape {
            dim {
              size: 10
            }
          }
        }
      }
    }
  }
  node {
    name: "gradients/add_grad/tuple/group_deps_1"
    op: "NoOp"
    input: "^gradients/add_grad/Reshape_2"
    input: "^gradients/add_grad/Reshape_1_1"
  }
  node {
    name: "gradients/add_grad/tuple/control_dependency_2"
    op: "Identity"
    input: "gradients/add_grad/Reshape_2"
    input: "^gradients/add_grad/tuple/group_deps_1"
    attr {
      key: "T"
      value {
        type: DT_FLOAT
      }
    }
    attr {
      key: "_class"
      value {
        list {
          s: "loc:@gradients/add_grad/Reshape_2"
        }
      }
    }
    attr {
      key: "_output_shapes"
      value {
        list {
          shape {
            dim {
              size: -1
            }
            dim {
              size: 10
            }
          }
        }
      }
    }
  }
  node {
    name: "gradients/add_grad/tuple/control_dependency_1_1"
    op: "Identity"
    input: "gradients/add_grad/Reshape_1_1"
    input: "^gradients/add_grad/tuple/group_deps_1"
    attr {
      key: "T"
      value {
        type: DT_FLOAT
      }
    }
    attr {
      key: "_class"
      value {
        list {
          s: "loc:@gradients/add_grad/Reshape_1_1"
        }
      }
    }
    attr {
      key: "_output_shapes"
      value {
        list {
          shape {
            dim {
              size: 10
            }
          }
        }
      }
    }
  }
  node {
    name: "gradients/MatMul_grad/MatMul_2"
    op: "MatMul"
    input: "gradients/add_grad/tuple/control_dependency_2"
    input: "Variable/read_1"
    attr {
      key: "T"
      value {
        type: DT_FLOAT
      }
    }
    attr {
      key: "_output_shapes"
      value {
        list {
          shape {
            dim {
              size: -1
            }
            dim {
              size: 784
            }
          }
        }
      }
    }
    attr {
      key: "transpose_a"
      value {
        b: false
      }
    }
    attr {
      key: "transpose_b"
      value {
        b: true
      }
    }
  }
  node {
    name: "gradients/MatMul_grad/MatMul_1_1"
    op: "MatMul"
    input: "Placeholder_2"
    input: "gradients/add_grad/tuple/control_dependency_2"
    attr {
      key: "T"
      value {
        type: DT_FLOAT
      }
    }
    attr {
      key: "_output_shapes"
      value {
        list {
          shape {
            dim {
              size: 784
            }
            dim {
              size: 10
            }
          }
        }
      }
    }
    attr {
      key: "transpose_a"
      value {
        b: true
      }
    }
    attr {
      key: "transpose_b"
      value {
        b: false
      }
    }
  }
  node {
    name: "gradients/MatMul_grad/tuple/group_deps_1"
    op: "NoOp"
    input: "^gradients/MatMul_grad/MatMul_2"
    input: "^gradients/MatMul_grad/MatMul_1_1"
  }
  node {
    name: "gradients/MatMul_grad/tuple/control_dependency_2"
    op: "Identity"
    input: "gradients/MatMul_grad/MatMul_2"
    input: "^gradients/MatMul_grad/tuple/group_deps_1"
    attr {
      key: "T"
      value {
        type: DT_FLOAT
      }
    }
    attr {
      key: "_class"
      value {
        list {
          s: "loc:@gradients/MatMul_grad/MatMul_2"
        }
      }
    }
    attr {
      key: "_output_shapes"
      value {
        list {
          shape {
            dim {
              size: -1
            }
            dim {
              size: 784
            }
          }
        }
      }
    }
  }
  node {
    name: "gradients/MatMul_grad/tuple/control_dependency_1_1"
    op: "Identity"
    input: "gradients/MatMul_grad/MatMul_1_1"
    input: "^gradients/MatMul_grad/tuple/group_deps_1"
    attr {
      key: "T"
      value {
        type: DT_FLOAT
      }
    }
    attr {
      key: "_class"
      value {
        list {
          s: "loc:@gradients/MatMul_grad/MatMul_1_1"
        }
      }
    }
    attr {
      key: "_output_shapes"
      value {
        list {
          shape {
            dim {
              size: 784
            }
            dim {
              size: 10
            }
          }
        }
      }
    }
  }
  node {
    name: "GradientDescent/learning_rate_1"
    op: "Const"
    attr {
      key: "_output_shapes"
      value {
        list {
          shape {
          }
        }
      }
    }
    attr {
      key: "dtype"
      value {
        type: DT_FLOAT
      }
    }
    attr {
      key: "value"
      value {
        tensor {
          dtype: DT_FLOAT
          tensor_shape {
          }
          float_val: 0.5
        }
      }
    }
  }
  node {
    name: "GradientDescent/update_Variable/ApplyGradientDescent_1"
    op: "ApplyGradientDescent"
    input: "Variable_2"
    input: "GradientDescent/learning_rate_1"
    input: "gradients/MatMul_grad/tuple/control_dependency_1_1"
    attr {
      key: "T"
      value {
        type: DT_FLOAT
      }
    }
    attr {
      key: "_class"
      value {
        list {
          s: "loc:@Variable_2"
        }
      }
    }
    attr {
      key: "_output_shapes"
      value {
        list {
          shape {
            dim {
              size: 784
            }
            dim {
              size: 10
            }
          }
        }
      }
    }
    attr {
      key: "use_locking"
      value {
        b: false
      }
    }
  }
  node {
    name: "GradientDescent/update_Variable_1/ApplyGradientDescent_1"
    op: "ApplyGradientDescent"
    input: "Variable_1_1"
    input: "GradientDescent/learning_rate_1"
    input: "gradients/add_grad/tuple/control_dependency_1_1"
    attr {
      key: "T"
      value {
        type: DT_FLOAT
      }
    }
    attr {
      key: "_class"
      value {
        list {
          s: "loc:@Variable_1_1"
        }
      }
    }
    attr {
      key: "_output_shapes"
      value {
        list {
          shape {
            dim {
              size: 10
            }
          }
        }
      }
    }
    attr {
      key: "use_locking"
      value {
        b: false
      }
    }
  }
  node {
    name: "GradientDescent_1"
    op: "NoOp"
    input: "^GradientDescent/update_Variable/ApplyGradientDescent_1"
    input: "^GradientDescent/update_Variable_1/ApplyGradientDescent_1"
  }
  node {
    name: "save/Const_1"
    op: "Const"
    attr {
      key: "_output_shapes"
      value {
        list {
          shape {
          }
        }
      }
    }
    attr {
      key: "dtype"
      value {
        type: DT_STRING
      }
    }
    attr {
      key: "value"
      value {
        tensor {
          dtype: DT_STRING
          tensor_shape {
          }
          string_val: "model"
        }
      }
    }
  }
  node {
    name: "save/SaveV2/tensor_names_1"
    op: "Const"
    attr {
      key: "_output_shapes"
      value {
        list {
          shape {
            dim {
              size: 2
            }
          }
        }
      }
    }
    attr {
      key: "dtype"
      value {
        type: DT_STRING
      }
    }
    attr {
      key: "value"
      value {
        tensor {
          dtype: DT_STRING
          tensor_shape {
            dim {
              size: 2
            }
          }
          string_val: "Variable"
          string_val: "Variable_1"
        }
      }
    }
  }
  node {
    name: "save/SaveV2/shape_and_slices_1"
    op: "Const"
    attr {
      key: "_output_shapes"
      value {
        list {
          shape {
            dim {
              size: 2
            }
          }
        }
      }
    }
    attr {
      key: "dtype"
      value {
        type: DT_STRING
      }
    }
    attr {
      key: "value"
      value {
        tensor {
          dtype: DT_STRING
          tensor_shape {
            dim {
              size: 2
            }
          }
          string_val: ""
          string_val: ""
        }
      }
    }
  }
  node {
    name: "save/SaveV2_1"
    op: "SaveV2"
    input: "save/Const_1"
    input: "save/SaveV2/tensor_names_1"
    input: "save/SaveV2/shape_and_slices_1"
    input: "Variable_2"
    input: "Variable_1_1"
    attr {
      key: "dtypes"
      value {
        list {
          type: DT_FLOAT
          type: DT_FLOAT
        }
      }
    }
  }
  node {
    name: "save/control_dependency_1"
    op: "Identity"
    input: "save/Const_1"
    input: "^save/SaveV2_1"
    attr {
      key: "T"
      value {
        type: DT_STRING
      }
    }
    attr {
      key: "_class"
      value {
        list {
          s: "loc:@save/Const_1"
        }
      }
    }
    attr {
      key: "_output_shapes"
      value {
        list {
          shape {
          }
        }
      }
    }
  }
  node {
    name: "save/RestoreV2/tensor_names_1"
    op: "Const"
    attr {
      key: "_output_shapes"
      value {
        list {
          shape {
            dim {
              size: 1
            }
          }
        }
      }
    }
    attr {
      key: "dtype"
      value {
        type: DT_STRING
      }
    }
    attr {
      key: "value"
      value {
        tensor {
          dtype: DT_STRING
          tensor_shape {
            dim {
              size: 1
            }
          }
          string_val: "Variable"
        }
      }
    }
  }
  node {
    name: "save/RestoreV2/shape_and_slices_1"
    op: "Const"
    attr {
      key: "_output_shapes"
      value {
        list {
          shape {
            dim {
              size: 1
            }
          }
        }
      }
    }
    attr {
      key: "dtype"
      value {
        type: DT_STRING
      }
    }
    attr {
      key: "value"
      value {
        tensor {
          dtype: DT_STRING
          tensor_shape {
            dim {
              size: 1
            }
          }
          string_val: ""
        }
      }
    }
  }
  node {
    name: "save/RestoreV2_2"
    op: "RestoreV2"
    input: "save/Const_1"
    input: "save/RestoreV2/tensor_names_1"
    input: "save/RestoreV2/shape_and_slices_1"
    attr {
      key: "_output_shapes"
      value {
        list {
          shape {
            unknown_rank: true
          }
        }
      }
    }
    attr {
      key: "dtypes"
      value {
        list {
          type: DT_FLOAT
        }
      }
    }
  }
  node {
    name: "save/Assign_2"
    op: "Assign"
    input: "Variable_2"
    input: "save/RestoreV2_2"
    attr {
      key: "T"
      value {
        type: DT_FLOAT
      }
    }
    attr {
      key: "_class"
      value {
        list {
          s: "loc:@Variable_2"
        }
      }
    }
    attr {
      key: "_output_shapes"
      value {
        list {
          shape {
            dim {
              size: 784
            }
            dim {
              size: 10
            }
          }
        }
      }
    }
    attr {
      key: "use_locking"
      value {
        b: true
      }
    }
    attr {
      key: "validate_shape"
      value {
        b: true
      }
    }
  }
  node {
    name: "save/RestoreV2_1/tensor_names_1"
    op: "Const"
    attr {
      key: "_output_shapes"
      value {
        list {
          shape {
            dim {
              size: 1
            }
          }
        }
      }
    }
    attr {
      key: "dtype"
      value {
        type: DT_STRING
      }
    }
    attr {
      key: "value"
      value {
        tensor {
          dtype: DT_STRING
          tensor_shape {
            dim {
              size: 1
            }
          }
          string_val: "Variable_1"
        }
      }
    }
  }
  node {
    name: "save/RestoreV2_1/shape_and_slices_1"
    op: "Const"
    attr {
      key: "_output_shapes"
      value {
        list {
          shape {
            dim {
              size: 1
            }
          }
        }
      }
    }
    attr {
      key: "dtype"
      value {
        type: DT_STRING
      }
    }
    attr {
      key: "value"
      value {
        tensor {
          dtype: DT_STRING
          tensor_shape {
            dim {
              size: 1
            }
          }
          string_val: ""
        }
      }
    }
  }
  node {
    name: "save/RestoreV2_1_1"
    op: "RestoreV2"
    input: "save/Const_1"
    input: "save/RestoreV2_1/tensor_names_1"
    input: "save/RestoreV2_1/shape_and_slices_1"
    attr {
      key: "_output_shapes"
      value {
        list {
          shape {
            unknown_rank: true
          }
        }
      }
    }
    attr {
      key: "dtypes"
      value {
        list {
          type: DT_FLOAT
        }
      }
    }
  }
  node {
    name: "save/Assign_1_1"
    op: "Assign"
    input: "Variable_1_1"
    input: "save/RestoreV2_1_1"
    attr {
      key: "T"
      value {
        type: DT_FLOAT
      }
    }
    attr {
      key: "_class"
      value {
        list {
          s: "loc:@Variable_1_1"
        }
      }
    }
    attr {
      key: "_output_shapes"
      value {
        list {
          shape {
            dim {
              size: 10
            }
          }
        }
      }
    }
    attr {
      key: "use_locking"
      value {
        b: true
      }
    }
    attr {
      key: "validate_shape"
      value {
        b: true
      }
    }
  }
  node {
    name: "save/restore_all_1"
    op: "NoOp"
    input: "^save/Assign_2"
    input: "^save/Assign_1_1"
  }
  node {
    name: "init_1"
    op: "NoOp"
    input: "^Variable/Assign_1"
    input: "^Variable_1/Assign_1"
  }
  node {
    name: "Placeholder_3"
    op: "Placeholder"
    attr {
      key: "_output_shapes"
      value {
        list {
          shape {
            dim {
              size: -1
            }
            dim {
              size: 784
            }
          }
        }
      }
    }
    attr {
      key: "dtype"
      value {
        type: DT_FLOAT
      }
    }
    attr {
      key: "shape"
      value {
        shape {
        }
      }
    }
  }
  node {
    name: "zeros_3"
    op: "Const"
    attr {
      key: "_output_shapes"
      value {
        list {
          shape {
            dim {
              size: 784
            }
            dim {
              size: 10
            }
          }
        }
      }
    }
    attr {
      key: "dtype"
      value {
        type: DT_FLOAT
      }
    }
    attr {
      key: "value"
      value {
        tensor {
          dtype: DT_FLOAT
          tensor_shape {
            dim {
              size: 784
            }
            dim {
              size: 10
            }
          }
          float_val: 0.0
        }
      }
    }
  }
  node {
    name: "Variable_3"
    op: "VariableV2"
    attr {
      key: "_output_shapes"
      value {
        list {
          shape {
            dim {
              size: 784
            }
            dim {
              size: 10
            }
          }
        }
      }
    }
    attr {
      key: "container"
      value {
        s: ""
      }
    }
    attr {
      key: "dtype"
      value {
        type: DT_FLOAT
      }
    }
    attr {
      key: "shape"
      value {
        shape {
          dim {
            size: 784
          }
          dim {
            size: 10
          }
        }
      }
    }
    attr {
      key: "shared_name"
      value {
        s: ""
      }
    }
  }
  node {
    name: "Variable/Assign_2"
    op: "Assign"
    input: "Variable_3"
    input: "zeros_3"
    attr {
      key: "T"
      value {
        type: DT_FLOAT
      }
    }
    attr {
      key: "_class"
      value {
        list {
          s: "loc:@Variable_3"
        }
      }
    }
    attr {
      key: "_output_shapes"
      value {
        list {
          shape {
            dim {
              size: 784
            }
            dim {
              size: 10
            }
          }
        }
      }
    }
    attr {
      key: "use_locking"
      value {
        b: true
      }
    }
    attr {
      key: "validate_shape"
      value {
        b: true
      }
    }
  }
  node {
    name: "Variable/read_2"
    op: "Identity"
    input: "Variable_3"
    attr {
      key: "T"
      value {
        type: DT_FLOAT
      }
    }
    attr {
      key: "_class"
      value {
        list {
          s: "loc:@Variable_3"
        }
      }
    }
    attr {
      key: "_output_shapes"
      value {
        list {
          shape {
            dim {
              size: 784
            }
            dim {
              size: 10
            }
          }
        }
      }
    }
  }
  node {
    name: "zeros_1_2"
    op: "Const"
    attr {
      key: "_output_shapes"
      value {
        list {
          shape {
            dim {
              size: 10
            }
          }
        }
      }
    }
    attr {
      key: "dtype"
      value {
        type: DT_FLOAT
      }
    }
    attr {
      key: "value"
      value {
        tensor {
          dtype: DT_FLOAT
          tensor_shape {
            dim {
              size: 10
            }
          }
          float_val: 0.0
        }
      }
    }
  }
  node {
    name: "Variable_1_2"
    op: "VariableV2"
    attr {
      key: "_output_shapes"
      value {
        list {
          shape {
            dim {
              size: 10
            }
          }
        }
      }
    }
    attr {
      key: "container"
      value {
        s: ""
      }
    }
    attr {
      key: "dtype"
      value {
        type: DT_FLOAT
      }
    }
    attr {
      key: "shape"
      value {
        shape {
          dim {
            size: 10
          }
        }
      }
    }
    attr {
      key: "shared_name"
      value {
        s: ""
      }
    }
  }
  node {
    name: "Variable_1/Assign_2"
    op: "Assign"
    input: "Variable_1_2"
    input: "zeros_1_2"
    attr {
      key: "T"
      value {
        type: DT_FLOAT
      }
    }
    attr {
      key: "_class"
      value {
        list {
          s: "loc:@Variable_1_2"
        }
      }
    }
    attr {
      key: "_output_shapes"
      value {
        list {
          shape {
            dim {
              size: 10
            }
          }
        }
      }
    }
    attr {
      key: "use_locking"
      value {
        b: true
      }
    }
    attr {
      key: "validate_shape"
      value {
        b: true
      }
    }
  }
  node {
    name: "Variable_1/read_2"
    op: "Identity"
    input: "Variable_1_2"
    attr {
      key: "T"
      value {
        type: DT_FLOAT
      }
    }
    attr {
      key: "_class"
      value {
        list {
          s: "loc:@Variable_1_2"
        }
      }
    }
    attr {
      key: "_output_shapes"
      value {
        list {
          shape {
            dim {
              size: 10
            }
          }
        }
      }
    }
  }
  node {
    name: "MatMul_2"
    op: "MatMul"
    input: "Placeholder_3"
    input: "Variable/read_2"
    attr {
      key: "T"
      value {
        type: DT_FLOAT
      }
    }
    attr {
      key: "_output_shapes"
      value {
        list {
          shape {
            dim {
              size: -1
            }
            dim {
              size: 10
            }
          }
        }
      }
    }
    attr {
      key: "transpose_a"
      value {
        b: false
      }
    }
    attr {
      key: "transpose_b"
      value {
        b: false
      }
    }
  }
  node {
    name: "add_2"
    op: "Add"
    input: "MatMul_2"
    input: "Variable_1/read_2"
    attr {
      key: "T"
      value {
        type: DT_FLOAT
      }
    }
    attr {
      key: "_output_shapes"
      value {
        list {
          shape {
            dim {
              size: -1
            }
            dim {
              size: 10
            }
          }
        }
      }
    }
  }
  node {
    name: "Placeholder_1_2"
    op: "Placeholder"
    attr {
      key: "_output_shapes"
      value {
        list {
          shape {
            dim {
              size: -1
            }
            dim {
              size: 10
            }
          }
        }
      }
    }
    attr {
      key: "dtype"
      value {
        type: DT_FLOAT
      }
    }
    attr {
      key: "shape"
      value {
        shape {
        }
      }
    }
  }
  node {
    name: "Rank_4"
    op: "Const"
    attr {
      key: "_output_shapes"
      value {
        list {
          shape {
          }
        }
      }
    }
    attr {
      key: "dtype"
      value {
        type: DT_INT32
      }
    }
    attr {
      key: "value"
      value {
        tensor {
          dtype: DT_INT32
          tensor_shape {
          }
          int_val: 2
        }
      }
    }
  }
  node {
    name: "Shape_4"
    op: "Shape"
    input: "add_2"
    attr {
      key: "T"
      value {
        type: DT_FLOAT
      }
    }
    attr {
      key: "_output_shapes"
      value {
        list {
          shape {
            dim {
              size: 2
            }
          }
        }
      }
    }
    attr {
      key: "out_type"
      value {
        type: DT_INT32
      }
    }
  }
  node {
    name: "Rank_1_2"
    op: "Const"
    attr {
      key: "_output_shapes"
      value {
        list {
          shape {
          }
        }
      }
    }
    attr {
      key: "dtype"
      value {
        type: DT_INT32
      }
    }
    attr {
      key: "value"
      value {
        tensor {
          dtype: DT_INT32
          tensor_shape {
          }
          int_val: 2
        }
      }
    }
  }
  node {
    name: "Shape_1_2"
    op: "Shape"
    input: "add_2"
    attr {
      key: "T"
      value {
        type: DT_FLOAT
      }
    }
    attr {
      key: "_output_shapes"
      value {
        list {
          shape {
            dim {
              size: 2
            }
          }
        }
      }
    }
    attr {
      key: "out_type"
      value {
        type: DT_INT32
      }
    }
  }
  node {
    name: "Sub/y_2"
    op: "Const"
    attr {
      key: "_output_shapes"
      value {
        list {
          shape {
          }
        }
      }
    }
    attr {
      key: "dtype"
      value {
        type: DT_INT32
      }
    }
    attr {
      key: "value"
      value {
        tensor {
          dtype: DT_INT32
          tensor_shape {
          }
          int_val: 1
        }
      }
    }
  }
  node {
    name: "Sub_4"
    op: "Sub"
    input: "Rank_1_2"
    input: "Sub/y_2"
    attr {
      key: "T"
      value {
        type: DT_INT32
      }
    }
    attr {
      key: "_output_shapes"
      value {
        list {
          shape {
          }
        }
      }
    }
  }
  node {
    name: "Slice/begin_2"
    op: "Pack"
    input: "Sub_4"
    attr {
      key: "N"
      value {
        i: 1
      }
    }
    attr {
      key: "T"
      value {
        type: DT_INT32
      }
    }
    attr {
      key: "_output_shapes"
      value {
        list {
          shape {
            dim {
              size: 1
            }
          }
        }
      }
    }
    attr {
      key: "axis"
      value {
        i: 0
      }
    }
  }
  node {
    name: "Slice/size_2"
    op: "Const"
    attr {
      key: "_output_shapes"
      value {
        list {
          shape {
            dim {
              size: 1
            }
          }
        }
      }
    }
    attr {
      key: "dtype"
      value {
        type: DT_INT32
      }
    }
    attr {
      key: "value"
      value {
        tensor {
          dtype: DT_INT32
          tensor_shape {
            dim {
              size: 1
            }
          }
          int_val: 1
        }
      }
    }
  }
  node {
    name: "Slice_4"
    op: "Slice"
    input: "Shape_1_2"
    input: "Slice/begin_2"
    input: "Slice/size_2"
    attr {
      key: "Index"
      value {
        type: DT_INT32
      }
    }
    attr {
      key: "T"
      value {
        type: DT_INT32
      }
    }
    attr {
      key: "_output_shapes"
      value {
        list {
          shape {
            dim {
              size: 1
            }
          }
        }
      }
    }
  }
  node {
    name: "concat/values_0_2"
    op: "Const"
    attr {
      key: "_output_shapes"
      value {
        list {
          shape {
            dim {
              size: 1
            }
          }
        }
      }
    }
    attr {
      key: "dtype"
      value {
        type: DT_INT32
      }
    }
    attr {
      key: "value"
      value {
        tensor {
          dtype: DT_INT32
          tensor_shape {
            dim {
              size: 1
            }
          }
          int_val: -1
        }
      }
    }
  }
  node {
    name: "concat/axis_2"
    op: "Const"
    attr {
      key: "_output_shapes"
      value {
        list {
          shape {
          }
        }
      }
    }
    attr {
      key: "dtype"
      value {
        type: DT_INT32
      }
    }
    attr {
      key: "value"
      value {
        tensor {
          dtype: DT_INT32
          tensor_shape {
          }
          int_val: 0
        }
      }
    }
  }
  node {
    name: "concat_3"
    op: "ConcatV2"
    input: "concat/values_0_2"
    input: "Slice_4"
    input: "concat/axis_2"
    attr {
      key: "N"
      value {
        i: 2
      }
    }
    attr {
      key: "T"
      value {
        type: DT_INT32
      }
    }
    attr {
      key: "Tidx"
      value {
        type: DT_INT32
      }
    }
    attr {
      key: "_output_shapes"
      value {
        list {
          shape {
            dim {
              size: 2
            }
          }
        }
      }
    }
  }
  node {
    name: "Reshape_4"
    op: "Reshape"
    input: "add_2"
    input: "concat_3"
    attr {
      key: "T"
      value {
        type: DT_FLOAT
      }
    }
    attr {
      key: "Tshape"
      value {
        type: DT_INT32
      }
    }
    attr {
      key: "_output_shapes"
      value {
        list {
          shape {
            dim {
              size: -1
            }
            dim {
              size: -1
            }
          }
        }
      }
    }
  }
  node {
    name: "Rank_2_2"
    op: "Const"
    attr {
      key: "_output_shapes"
      value {
        list {
          shape {
          }
        }
      }
    }
    attr {
      key: "dtype"
      value {
        type: DT_INT32
      }
    }
    attr {
      key: "value"
      value {
        tensor {
          dtype: DT_INT32
          tensor_shape {
          }
          int_val: 2
        }
      }
    }
  }
  node {
    name: "Shape_2_2"
    op: "Shape"
    input: "Placeholder_1_2"
    attr {
      key: "T"
      value {
        type: DT_FLOAT
      }
    }
    attr {
      key: "_output_shapes"
      value {
        list {
          shape {
            dim {
              size: 2
            }
          }
        }
      }
    }
    attr {
      key: "out_type"
      value {
        type: DT_INT32
      }
    }
  }
  node {
    name: "Sub_1/y_2"
    op: "Const"
    attr {
      key: "_output_shapes"
      value {
        list {
          shape {
          }
        }
      }
    }
    attr {
      key: "dtype"
      value {
        type: DT_INT32
      }
    }
    attr {
      key: "value"
      value {
        tensor {
          dtype: DT_INT32
          tensor_shape {
          }
          int_val: 1
        }
      }
    }
  }
  node {
    name: "Sub_1_2"
    op: "Sub"
    input: "Rank_2_2"
    input: "Sub_1/y_2"
    attr {
      key: "T"
      value {
        type: DT_INT32
      }
    }
    attr {
      key: "_output_shapes"
      value {
        list {
          shape {
          }
        }
      }
    }
  }
  node {
    name: "Slice_1/begin_2"
    op: "Pack"
    input: "Sub_1_2"
    attr {
      key: "N"
      value {
        i: 1
      }
    }
    attr {
      key: "T"
      value {
        type: DT_INT32
      }
    }
    attr {
      key: "_output_shapes"
      value {
        list {
          shape {
            dim {
              size: 1
            }
          }
        }
      }
    }
    attr {
      key: "axis"
      value {
        i: 0
      }
    }
  }
  node {
    name: "Slice_1/size_2"
    op: "Const"
    attr {
      key: "_output_shapes"
      value {
        list {
          shape {
            dim {
              size: 1
            }
          }
        }
      }
    }
    attr {
      key: "dtype"
      value {
        type: DT_INT32
      }
    }
    attr {
      key: "value"
      value {
        tensor {
          dtype: DT_INT32
          tensor_shape {
            dim {
              size: 1
            }
          }
          int_val: 1
        }
      }
    }
  }
  node {
    name: "Slice_1_2"
    op: "Slice"
    input: "Shape_2_2"
    input: "Slice_1/begin_2"
    input: "Slice_1/size_2"
    attr {
      key: "Index"
      value {
        type: DT_INT32
      }
    }
    attr {
      key: "T"
      value {
        type: DT_INT32
      }
    }
    attr {
      key: "_output_shapes"
      value {
        list {
          shape {
            dim {
              size: 1
            }
          }
        }
      }
    }
  }
  node {
    name: "concat_1/values_0_2"
    op: "Const"
    attr {
      key: "_output_shapes"
      value {
        list {
          shape {
            dim {
              size: 1
            }
          }
        }
      }
    }
    attr {
      key: "dtype"
      value {
        type: DT_INT32
      }
    }
    attr {
      key: "value"
      value {
        tensor {
          dtype: DT_INT32
          tensor_shape {
            dim {
              size: 1
            }
          }
          int_val: -1
        }
      }
    }
  }
  node {
    name: "concat_1/axis_2"
    op: "Const"
    attr {
      key: "_output_shapes"
      value {
        list {
          shape {
          }
        }
      }
    }
    attr {
      key: "dtype"
      value {
        type: DT_INT32
      }
    }
    attr {
      key: "value"
      value {
        tensor {
          dtype: DT_INT32
          tensor_shape {
          }
          int_val: 0
        }
      }
    }
  }
  node {
    name: "concat_1_2"
    op: "ConcatV2"
    input: "concat_1/values_0_2"
    input: "Slice_1_2"
    input: "concat_1/axis_2"
    attr {
      key: "N"
      value {
        i: 2
      }
    }
    attr {
      key: "T"
      value {
        type: DT_INT32
      }
    }
    attr {
      key: "Tidx"
      value {
        type: DT_INT32
      }
    }
    attr {
      key: "_output_shapes"
      value {
        list {
          shape {
            dim {
              size: 2
            }
          }
        }
      }
    }
  }
  node {
    name: "Reshape_1_2"
    op: "Reshape"
    input: "Placeholder_1_2"
    input: "concat_1_2"
    attr {
      key: "T"
      value {
        type: DT_FLOAT
      }
    }
    attr {
      key: "Tshape"
      value {
        type: DT_INT32
      }
    }
    attr {
      key: "_output_shapes"
      value {
        list {
          shape {
            dim {
              size: -1
            }
            dim {
              size: -1
            }
          }
        }
      }
    }
  }
  node {
    name: "SoftmaxCrossEntropyWithLogits_2"
    op: "SoftmaxCrossEntropyWithLogits"
    input: "Reshape_4"
    input: "Reshape_1_2"
    attr {
      key: "T"
      value {
        type: DT_FLOAT
      }
    }
    attr {
      key: "_output_shapes"
      value {
        list {
          shape {
            dim {
              size: -1
            }
          }
          shape {
            dim {
              size: -1
            }
            dim {
              size: -1
            }
          }
        }
      }
    }
  }
  node {
    name: "Sub_2/y_2"
    op: "Const"
    attr {
      key: "_output_shapes"
      value {
        list {
          shape {
          }
        }
      }
    }
    attr {
      key: "dtype"
      value {
        type: DT_INT32
      }
    }
    attr {
      key: "value"
      value {
        tensor {
          dtype: DT_INT32
          tensor_shape {
          }
          int_val: 1
        }
      }
    }
  }
  node {
    name: "Sub_2_2"
    op: "Sub"
    input: "Rank_4"
    input: "Sub_2/y_2"
    attr {
      key: "T"
      value {
        type: DT_INT32
      }
    }
    attr {
      key: "_output_shapes"
      value {
        list {
          shape {
          }
        }
      }
    }
  }
  node {
    name: "Slice_2/begin_2"
    op: "Const"
    attr {
      key: "_output_shapes"
      value {
        list {
          shape {
            dim {
              size: 1
            }
          }
        }
      }
    }
    attr {
      key: "dtype"
      value {
        type: DT_INT32
      }
    }
    attr {
      key: "value"
      value {
        tensor {
          dtype: DT_INT32
          tensor_shape {
            dim {
              size: 1
            }
          }
          int_val: 0
        }
      }
    }
  }
  node {
    name: "Slice_2/size_2"
    op: "Pack"
    input: "Sub_2_2"
    attr {
      key: "N"
      value {
        i: 1
      }
    }
    attr {
      key: "T"
      value {
        type: DT_INT32
      }
    }
    attr {
      key: "_output_shapes"
      value {
        list {
          shape {
            dim {
              size: 1
            }
          }
        }
      }
    }
    attr {
      key: "axis"
      value {
        i: 0
      }
    }
  }
  node {
    name: "Slice_2_2"
    op: "Slice"
    input: "Shape_4"
    input: "Slice_2/begin_2"
    input: "Slice_2/size_2"
    attr {
      key: "Index"
      value {
        type: DT_INT32
      }
    }
    attr {
      key: "T"
      value {
        type: DT_INT32
      }
    }
    attr {
      key: "_output_shapes"
      value {
        list {
          shape {
            dim {
              size: -1
            }
          }
        }
      }
    }
  }
  node {
    name: "Reshape_2_2"
    op: "Reshape"
    input: "SoftmaxCrossEntropyWithLogits_2"
    input: "Slice_2_2"
    attr {
      key: "T"
      value {
        type: DT_FLOAT
      }
    }
    attr {
      key: "Tshape"
      value {
        type: DT_INT32
      }
    }
    attr {
      key: "_output_shapes"
      value {
        list {
          shape {
            dim {
              size: -1
            }
          }
        }
      }
    }
  }
  node {
    name: "Const_2"
    op: "Const"
    attr {
      key: "_output_shapes"
      value {
        list {
          shape {
            dim {
              size: 1
            }
          }
        }
      }
    }
    attr {
      key: "dtype"
      value {
        type: DT_INT32
      }
    }
    attr {
      key: "value"
      value {
        tensor {
          dtype: DT_INT32
          tensor_shape {
            dim {
              size: 1
            }
          }
          int_val: 0
        }
      }
    }
  }
  node {
    name: "Mean_2"
    op: "Mean"
    input: "Reshape_2_2"
    input: "Const_2"
    attr {
      key: "T"
      value {
        type: DT_FLOAT
      }
    }
    attr {
      key: "Tidx"
      value {
        type: DT_INT32
      }
    }
    attr {
      key: "_output_shapes"
      value {
        list {
          shape {
          }
        }
      }
    }
    attr {
      key: "keep_dims"
      value {
        b: false
      }
    }
  }
  node {
    name: "gradients/Shape_2"
    op: "Const"
    attr {
      key: "_output_shapes"
      value {
        list {
          shape {
            dim {
            }
          }
        }
      }
    }
    attr {
      key: "dtype"
      value {
        type: DT_INT32
      }
    }
    attr {
      key: "value"
      value {
        tensor {
          dtype: DT_INT32
          tensor_shape {
            dim {
            }
          }
        }
      }
    }
  }
  node {
    name: "gradients/Const_2"
    op: "Const"
    attr {
      key: "_output_shapes"
      value {
        list {
          shape {
          }
        }
      }
    }
    attr {
      key: "dtype"
      value {
        type: DT_FLOAT
      }
    }
    attr {
      key: "value"
      value {
        tensor {
          dtype: DT_FLOAT
          tensor_shape {
          }
          float_val: 1.0
        }
      }
    }
  }
  node {
    name: "gradients/Fill_2"
    op: "Fill"
    input: "gradients/Shape_2"
    input: "gradients/Const_2"
    attr {
      key: "T"
      value {
        type: DT_FLOAT
      }
    }
    attr {
      key: "_output_shapes"
      value {
        list {
          shape {
          }
        }
      }
    }
  }
  node {
    name: "gradients/Mean_grad/Reshape/shape_2"
    op: "Const"
    attr {
      key: "_output_shapes"
      value {
        list {
          shape {
            dim {
              size: 1
            }
          }
        }
      }
    }
    attr {
      key: "dtype"
      value {
        type: DT_INT32
      }
    }
    attr {
      key: "value"
      value {
        tensor {
          dtype: DT_INT32
          tensor_shape {
            dim {
              size: 1
            }
          }
          int_val: 1
        }
      }
    }
  }
  node {
    name: "gradients/Mean_grad/Reshape_2"
    op: "Reshape"
    input: "gradients/Fill_2"
    input: "gradients/Mean_grad/Reshape/shape_2"
    attr {
      key: "T"
      value {
        type: DT_FLOAT
      }
    }
    attr {
      key: "Tshape"
      value {
        type: DT_INT32
      }
    }
    attr {
      key: "_output_shapes"
      value {
        list {
          shape {
            dim {
              size: 1
            }
          }
        }
      }
    }
  }
  node {
    name: "gradients/Mean_grad/Shape_4"
    op: "Shape"
    input: "Reshape_2_2"
    attr {
      key: "T"
      value {
        type: DT_FLOAT
      }
    }
    attr {
      key: "_output_shapes"
      value {
        list {
          shape {
            dim {
              size: 1
            }
          }
        }
      }
    }
    attr {
      key: "out_type"
      value {
        type: DT_INT32
      }
    }
  }
  node {
    name: "gradients/Mean_grad/Tile_2"
    op: "Tile"
    input: "gradients/Mean_grad/Reshape_2"
    input: "gradients/Mean_grad/Shape_4"
    attr {
      key: "T"
      value {
        type: DT_FLOAT
      }
    }
    attr {
      key: "Tmultiples"
      value {
        type: DT_INT32
      }
    }
    attr {
      key: "_output_shapes"
      value {
        list {
          shape {
            dim {
              size: -1
            }
          }
        }
      }
    }
  }
  node {
    name: "gradients/Mean_grad/Shape_1_2"
    op: "Shape"
    input: "Reshape_2_2"
    attr {
      key: "T"
      value {
        type: DT_FLOAT
      }
    }
    attr {
      key: "_output_shapes"
      value {
        list {
          shape {
            dim {
              size: 1
            }
          }
        }
      }
    }
    attr {
      key: "out_type"
      value {
        type: DT_INT32
      }
    }
  }
  node {
    name: "gradients/Mean_grad/Shape_2_2"
    op: "Const"
    attr {
      key: "_output_shapes"
      value {
        list {
          shape {
            dim {
            }
          }
        }
      }
    }
    attr {
      key: "dtype"
      value {
        type: DT_INT32
      }
    }
    attr {
      key: "value"
      value {
        tensor {
          dtype: DT_INT32
          tensor_shape {
            dim {
            }
          }
        }
      }
    }
  }
  node {
    name: "gradients/Mean_grad/Const_3"
    op: "Const"
    attr {
      key: "_output_shapes"
      value {
        list {
          shape {
            dim {
              size: 1
            }
          }
        }
      }
    }
    attr {
      key: "dtype"
      value {
        type: DT_INT32
      }
    }
    attr {
      key: "value"
      value {
        tensor {
          dtype: DT_INT32
          tensor_shape {
            dim {
              size: 1
            }
          }
          int_val: 0
        }
      }
    }
  }
  node {
    name: "gradients/Mean_grad/Prod_3"
    op: "Prod"
    input: "gradients/Mean_grad/Shape_1_2"
    input: "gradients/Mean_grad/Const_3"
    attr {
      key: "T"
      value {
        type: DT_INT32
      }
    }
    attr {
      key: "Tidx"
      value {
        type: DT_INT32
      }
    }
    attr {
      key: "_output_shapes"
      value {
        list {
          shape {
          }
        }
      }
    }
    attr {
      key: "keep_dims"
      value {
        b: false
      }
    }
  }
  node {
    name: "gradients/Mean_grad/Const_1_2"
    op: "Const"
    attr {
      key: "_output_shapes"
      value {
        list {
          shape {
            dim {
              size: 1
            }
          }
        }
      }
    }
    attr {
      key: "dtype"
      value {
        type: DT_INT32
      }
    }
    attr {
      key: "value"
      value {
        tensor {
          dtype: DT_INT32
          tensor_shape {
            dim {
              size: 1
            }
          }
          int_val: 0
        }
      }
    }
  }
  node {
    name: "gradients/Mean_grad/Prod_1_2"
    op: "Prod"
    input: "gradients/Mean_grad/Shape_2_2"
    input: "gradients/Mean_grad/Const_1_2"
    attr {
      key: "T"
      value {
        type: DT_INT32
      }
    }
    attr {
      key: "Tidx"
      value {
        type: DT_INT32
      }
    }
    attr {
      key: "_output_shapes"
      value {
        list {
          shape {
          }
        }
      }
    }
    attr {
      key: "keep_dims"
      value {
        b: false
      }
    }
  }
  node {
    name: "gradients/Mean_grad/Maximum/y_2"
    op: "Const"
    attr {
      key: "_output_shapes"
      value {
        list {
          shape {
          }
        }
      }
    }
    attr {
      key: "dtype"
      value {
        type: DT_INT32
      }
    }
    attr {
      key: "value"
      value {
        tensor {
          dtype: DT_INT32
          tensor_shape {
          }
          int_val: 1
        }
      }
    }
  }
  node {
    name: "gradients/Mean_grad/Maximum_2"
    op: "Maximum"
    input: "gradients/Mean_grad/Prod_1_2"
    input: "gradients/Mean_grad/Maximum/y_2"
    attr {
      key: "T"
      value {
        type: DT_INT32
      }
    }
    attr {
      key: "_output_shapes"
      value {
        list {
          shape {
          }
        }
      }
    }
  }
  node {
    name: "gradients/Mean_grad/floordiv_2"
    op: "FloorDiv"
    input: "gradients/Mean_grad/Prod_3"
    input: "gradients/Mean_grad/Maximum_2"
    attr {
      key: "T"
      value {
        type: DT_INT32
      }
    }
    attr {
      key: "_output_shapes"
      value {
        list {
          shape {
          }
        }
      }
    }
  }
  node {
    name: "gradients/Mean_grad/Cast_2"
    op: "Cast"
    input: "gradients/Mean_grad/floordiv_2"
    attr {
      key: "DstT"
      value {
        type: DT_FLOAT
      }
    }
    attr {
      key: "SrcT"
      value {
        type: DT_INT32
      }
    }
    attr {
      key: "_output_shapes"
      value {
        list {
          shape {
          }
        }
      }
    }
  }
  node {
    name: "gradients/Mean_grad/truediv_2"
    op: "RealDiv"
    input: "gradients/Mean_grad/Tile_2"
    input: "gradients/Mean_grad/Cast_2"
…
        type: DT_INT32
      }
    }
    attr {
      key: "value"
      value {
        tensor {
          dtype: DT_INT32
          tensor_shape {
          }
          int_val: 1
        }
      }
    }
  }
  node {
    name: "Sub_3_1"
    op: "Sub"
    input: "Rank_4_1"
    input: "Sub_3/y_1"
    attr {
      key: "T"
      value {
        type: DT_INT32
      }
    }
    attr {
      key: "_output_shapes"
      value {
        list {
          shape {
          }
        }
      }
    }
  }
  node {
    name: "Slice_3/begin_1"
    op: "Pack"
    input: "Sub_3_1"
    attr {
      key: "N"
      value {
        i: 1
      }
    }
    attr {
      key: "T"
      value {
        type: DT_INT32
      }
    }
    attr {
      key: "_output_shapes"
      value {
        list {
          shape {
            dim {
              size: 1
            }
          }
        }
      }
    }
    attr {
      key: "axis"
      value {
        i: 0
      }
    }
  }
  node {
    name: "Slice_3/size_1"
    op: "Const"
    attr {
      key: "_output_shapes"
      value {
        list {
          shape {
            dim {
              size: 1
            }
          }
        }
      }
    }
    attr {
      key: "dtype"
      value {
        type: DT_INT32
      }
    }
    attr {
      key: "value"
      value {
        tensor {
          dtype: DT_INT32
          tensor_shape {
            dim {
              size: 1
            }
          }
          int_val: 1
        }
      }
    }
  }
  node {
    name: "Slice_3_1"
    op: "Slice"
    input: "Shape_4_1"
    input: "Slice_3/begin_1"
    input: "Slice_3/size_1"
    attr {
      key: "Index"
      value {
        type: DT_INT32
      }
    }
    attr {
      key: "T"
      value {
        type: DT_INT32
      }
    }
    attr {
      key: "_output_shapes"
      value {
        list {
          shape {
            dim {
              size: 1
            }
          }
        }
      }
    }
  }
  node {
    name: "concat_2/values_0_1"
    op: "Const"
    attr {
      key: "_output_shapes"
      value {
        list {
          shape {
            dim {
              size: 1
            }
          }
        }
      }
    }
    attr {
      key: "dtype"
      value {
        type: DT_INT32
      }
    }
    attr {
      key: "value"
      value {
        tensor {
          dtype: DT_INT32
          tensor_shape {
            dim {
              size: 1
            }
          }
          int_val: -1
        }
      }
    }
  }
  node {
    name: "concat_2/axis_1"
    op: "Const"
    attr {
      key: "_output_shapes"
      value {
        list {
          shape {
          }
        }
      }
    }
    attr {
      key: "dtype"
      value {
        type: DT_INT32
      }
    }
    attr {
      key: "value"
      value {
        tensor {
          dtype: DT_INT32
          tensor_shape {
          }
          int_val: 0
        }
      }
    }
  }
  node {
    name: "concat_2_1"
    op: "ConcatV2"
    input: "concat_2/values_0_1"
    input: "Slice_3_1"
    input: "concat_2/axis_1"
    attr {
      key: "N"
      value {
        i: 2
      }
    }
    attr {
      key: "T"
      value {
        type: DT_INT32
      }
    }
    attr {
      key: "Tidx"
      value {
        type: DT_INT32
      }
    }
    attr {
      key: "_output_shapes"
      value {
        list {
          shape {
            dim {
              size: 2
            }
          }
        }
      }
    }
  }
  node {
    name: "Reshape_3_1"
    op: "Reshape"
    input: "add_1_1"
    input: "concat_2_1"
    attr {
      key: "T"
      value {
        type: DT_FLOAT
      }
    }
    attr {
      key: "Tshape"
      value {
        type: DT_INT32
      }
    }
    attr {
      key: "_output_shapes"
      value {
        list {
          shape {
            dim {
              size: -1
            }
            dim {
              size: -1
            }
          }
        }
      }
    }
  }
  node {
    name: "Rank_5_1"
    op: "Const"
    attr {
      key: "_output_shapes"
      value {
        list {
          shape {
          }
        }
      }
    }
    attr {
      key: "dtype"
      value {
        type: DT_INT32
      }
    }
    attr {
      key: "value"
      value {
        tensor {
          dtype: DT_INT32
          tensor_shape {
          }
          int_val: 2
        }
      }
    }
  }
  node {
    name: "Shape_5_1"
    op: "Shape"
    input: "Placeholder_3_1"
    attr {
      key: "T"
      value {
        type: DT_FLOAT
      }
    }
    attr {
      key: "_output_shapes"
      value {
        list {
          shape {
            dim {
              size: 2
            }
          }
        }
      }
    }
    attr {
      key: "out_type"
      value {
        type: DT_INT32
      }
    }
  }
  node {
    name: "Sub_4/y_1"
    op: "Const"
    attr {
      key: "_output_shapes"
      value {
        list {
          shape {
          }
        }
      }
    }
    attr {
      key: "dtype"
      value {
        type: DT_INT32
      }
    }
    attr {
      key: "value"
      value {
        tensor {
          dtype: DT_INT32
          tensor_shape {
          }
          int_val: 1
        }
      }
    }
  }
  node {
    name: "Sub_4_1"
    op: "Sub"
    input: "Rank_5_1"
    input: "Sub_4/y_1"
    attr {
      key: "T"
      value {
        type: DT_INT32
      }
    }
    attr {
      key: "_output_shapes"
      value {
        list {
          shape {
          }
        }
      }
    }
  }
  node {
    name: "Slice_4/begin_1"
    op: "Pack"
    input: "Sub_4_1"
    attr {
      key: "N"
      value {
        i: 1
      }
    }
    attr {
      key: "T"
      value {
        type: DT_INT32
      }
    }
    attr {
      key: "_output_shapes"
      value {
        list {
          shape {
            dim {
              size: 1
            }
          }
        }
      }
    }
    attr {
      key: "axis"
      value {
        i: 0
      }
    }
  }
  node {
    name: "Slice_4/size_1"
    op: "Const"
    attr {
      key: "_output_shapes"
      value {
        list {
          shape {
            dim {
              size: 1
            }
          }
        }
      }
    }
    attr {
      key: "dtype"
      value {
        type: DT_INT32
      }
    }
    attr {
      key: "value"
      value {
        tensor {
          dtype: DT_INT32
          tensor_shape {
            dim {
              size: 1
            }
          }
          int_val: 1
        }
      }
    }
  }
  node {
    name: "Slice_4_1"
    op: "Slice"
    input: "Shape_5_1"
    input: "Slice_4/begin_1"
    input: "Slice_4/size_1"
    attr {
      key: "Index"
      value {
        type: DT_INT32
      }
    }
    attr {
      key: "T"
      value {
        type: DT_INT32
      }
    }
    attr {
      key: "_output_shapes"
      value {
        list {
          shape {
            dim {
              size: 1
            }
          }
        }
      }
    }
  }
  node {
    name: "concat_3/values_0_1"
    op: "Const"
    attr {
      key: "_output_shapes"
      value {
        list {
          shape {
            dim {
              size: 1
            }
          }
        }
      }
    }
    attr {
      key: "dtype"
      value {
        type: DT_INT32
      }
    }
    attr {
      key: "value"
      value {
        tensor {
          dtype: DT_INT32
          tensor_shape {
            dim {
              size: 1
            }
          }
          int_val: -1
        }
      }
    }
  }
  node {
    name: "concat_3/axis_1"
    op: "Const"
    attr {
      key: "_output_shapes"
      value {
        list {
          shape {
          }
        }
      }
    }
    attr {
      key: "dtype"
      value {
        type: DT_INT32
      }
    }
    attr {
      key: "value"
      value {
        tensor {
          dtype: DT_INT32
          tensor_shape {
          }
          int_val: 0
        }
      }
    }
  }
  node {
    name: "concat_3_1"
    op: "ConcatV2"
    input: "concat_3/values_0_1"
    input: "Slice_4_1"
    input: "concat_3/axis_1"
    attr {
      key: "N"
      value {
        i: 2
      }
    }
    attr {
      key: "T"
      value {
        type: DT_INT32
      }
    }
    attr {
      key: "Tidx"
      value {
        type: DT_INT32
      }
    }
    attr {
      key: "_output_shapes"
      value {
        list {
          shape {
            dim {
              size: 2
            }
          }
        }
      }
    }
  }
  node {
    name: "Reshape_4_1"
    op: "Reshape"
    input: "Placeholder_3_1"
    input: "concat_3_1"
    attr {
      key: "T"
      value {
        type: DT_FLOAT
      }
    }
    attr {
      key: "Tshape"
      value {
        type: DT_INT32
      }
    }
    attr {
      key: "_output_shapes"
      value {
        list {
          shape {
            dim {
              size: -1
            }
            dim {
              size: -1
            }
          }
        }
      }
    }
  }
  node {
    name: "SoftmaxCrossEntropyWithLogits_1_1"
    op: "SoftmaxCrossEntropyWithLogits"
    input: "Reshape_3_1"
    input: "Reshape_4_1"
    attr {
      key: "T"
      value {
        type: DT_FLOAT
      }
    }
    attr {
      key: "_output_shapes"
      value {
        list {
          shape {
            dim {
              size: -1
            }
          }
          shape {
            dim {
              size: -1
            }
            dim {
              size: -1
            }
          }
        }
      }
    }
  }
  node {
    name: "Sub_5/y_1"
    op: "Const"
    attr {
      key: "_output_shapes"
      value {
        list {
          shape {
          }
        }
      }
    }
    attr {
      key: "dtype"
      value {
        type: DT_INT32
      }
    }
    attr {
      key: "value"
      value {
        tensor {
          dtype: DT_INT32
          tensor_shape {
          }
          int_val: 1
        }
      }
    }
  }
  node {
    name: "Sub_5_1"
    op: "Sub"
    input: "Rank_3_1"
    input: "Sub_5/y_1"
    attr {
      key: "T"
      value {
        type: DT_INT32
      }
    }
    attr {
      key: "_output_shapes"
      value {
        list {
          shape {
          }
        }
      }
    }
  }
  node {
    name: "Slice_5/begin_1"
    op: "Const"
    attr {
      key: "_output_shapes"
      value {
        list {
          shape {
            dim {
              size: 1
            }
          }
        }
      }
    }
    attr {
      key: "dtype"
      value {
        type: DT_INT32
      }
    }
    attr {
      key: "value"
      value {
        tensor {
          dtype: DT_INT32
          tensor_shape {
            dim {
              size: 1
            }
          }
          int_val: 0
        }
      }
    }
  }
  node {
    name: "Slice_5/size_1"
    op: "Pack"
    input: "Sub_5_1"
    attr {
      key: "N"
      value {
        i: 1
      }
    }
    attr {
      key: "T"
      value {
        type: DT_INT32
      }
    }
    attr {
      key: "_output_shapes"
      value {
        list {
          shape {
            dim {
              size: 1
            }
          }
        }
      }
    }
    attr {
      key: "axis"
      value {
        i: 0
      }
    }
  }
  node {
    name: "Slice_5_1"
    op: "Slice"
    input: "Shape_3_1"
    input: "Slice_5/begin_1"
    input: "Slice_5/size_1"
    attr {
      key: "Index"
      value {
        type: DT_INT32
      }
    }
    attr {
      key: "T"
      value {
        type: DT_INT32
      }
    }
    attr {
      key: "_output_shapes"
      value {
        list {
          shape {
            dim {
              size: -1
            }
          }
        }
      }
    }
  }
  node {
    name: "Reshape_5_1"
    op: "Reshape"
    input: "SoftmaxCrossEntropyWithLogits_1_1"
    input: "Slice_5_1"
    attr {
      key: "T"
      value {
        type: DT_FLOAT
      }
    }
    attr {
      key: "Tshape"
      value {
        type: DT_INT32
      }
    }
    attr {
      key: "_output_shapes"
      value {
        list {
          shape {
            dim {
              size: -1
            }
          }
        }
      }
    }
  }
  node {
    name: "Const_2_1"
    op: "Const"
    attr {
      key: "_output_shapes"
      value {
        list {
          shape {
            dim {
              size: 1
            }
          }
        }
      }
    }
    attr {
      key: "dtype"
      value {
        type: DT_INT32
      }
    }
    attr {
      key: "value"
      value {
        tensor {
          dtype: DT_INT32
          tensor_shape {
            dim {
              size: 1
            }
          }
          int_val: 0
        }
      }
    }
  }
  node {
    name: "Mean_2_1"
    op: "Mean"
    input: "Reshape_5_1"
    input: "Const_2_1"
    attr {
      key: "T"
      value {
        type: DT_FLOAT
      }
    }
    attr {
      key: "Tidx"
      value {
        type: DT_INT32
      }
    }
    attr {
      key: "_output_shapes"
      value {
        list {
          shape {
          }
        }
      }
    }
    attr {
      key: "keep_dims"
      value {
        b: false
      }
    }
  }
  node {
    name: "gradients_1/Shape_1"
    op: "Const"
    attr {
      key: "_output_shapes"
      value {
        list {
          shape {
            dim {
            }
          }
        }
      }
    }
    attr {
      key: "dtype"
      value {
        type: DT_INT32
      }
    }
    attr {
      key: "value"
      value {
        tensor {
          dtype: DT_INT32
          tensor_shape {
            dim {
            }
          }
        }
      }
    }
  }
  node {
    name: "gradients_1/Const_1"
    op: "Const"
    attr {
      key: "_output_shapes"
      value {
        list {
          shape {
          }
        }
      }
    }
    attr {
      key: "dtype"
      value {
        type: DT_FLOAT
      }
    }
    attr {
      key: "value"
      value {
        tensor {
          dtype: DT_FLOAT
          tensor_shape {
          }
          float_val: 1.0
        }
      }
    }
  }
  node {
    name: "gradients_1/Fill_1"
    op: "Fill"
    input: "gradients_1/Shape_1"
    input: "gradients_1/Const_1"
    attr {
      key: "T"
      value {
        type: DT_FLOAT
      }
    }
    attr {
      key: "_output_shapes"
      value {
        list {
          shape {
          }
        }
      }
    }
  }
  node {
    name: "gradients_1/Mean_2_grad/Reshape/shape_1"
    op: "Const"
    attr {
      key: "_output_shapes"
      value {
        list {
          shape {
            dim {
              size: 1
            }
          }
        }
      }
    }
    attr {
      key: "dtype"
      value {
        type: DT_INT32
      }
    }
    attr {
      key: "value"
      value {
        tensor {
          dtype: DT_INT32
          tensor_shape {
            dim {
              size: 1
            }
          }
          int_val: 1
        }
      }
    }
  }
  node {
    name: "gradients_1/Mean_2_grad/Reshape_1"
    op: "Reshape"
    input: "gradients_1/Fill_1"
    input: "gradients_1/Mean_2_grad/Reshape/shape_1"
    attr {
      key: "T"
      value {
        type: DT_FLOAT
      }
    }
    attr {
      key: "Tshape"
      value {
        type: DT_INT32
      }
    }
    attr {
      key: "_output_shapes"
      value {
        list {
          shape {
            dim {
              size: 1
            }
          }
        }
      }
    }
  }
  node {
    name: "gradients_1/Mean_2_grad/Shape_3"
    op: "Shape"
    input: "Reshape_5_1"
    attr {
      key: "T"
      value {
        type: DT_FLOAT
      }
    }
    attr {
      key: "_output_shapes"
      value {
        list {
          shape {
            dim {
              size: 1
            }
          }
        }
      }
    }
    attr {
      key: "out_type"
      value {
        type: DT_INT32
      }
    }
  }
  node {
    name: "gradients_1/Mean_2_grad/Tile_1"
    op: "Tile"
    input: "gradients_1/Mean_2_grad/Reshape_1"
    input: "gradients_1/Mean_2_grad/Shape_3"
    attr {
      key: "T"
      value {
        type: DT_FLOAT
      }
    }
    attr {
      key: "Tmultiples"
      value {
        type: DT_INT32
      }
    }
    attr {
      key: "_output_shapes"
      value {
        list {
          shape {
            dim {
              size: -1
            }
          }
        }
      }
    }
  }
  node {
    name: "gradients_1/Mean_2_grad/Shape_1_1"
    op: "Shape"
    input: "Reshape_5_1"
    attr {
      key: "T"
      value {
        type: DT_FLOAT
      }
    }
    attr {
      key: "_output_shapes"
      value {
        list {
          shape {
            dim {
              size: 1
            }
          }
        }
      }
    }
    attr {
      key: "out_type"
      value {
        type: DT_INT32
      }
    }
  }
  node {
    name: "gradients_1/Mean_2_grad/Shape_2_1"
    op: "Const"
    attr {
      key: "_output_shapes"
      value {
        list {
          shape {
            dim {
            }
          }
        }
      }
    }
    attr {
      key: "dtype"
      value {
        type: DT_INT32
      }
    }
    attr {
      key: "value"
      value {
        tensor {
          dtype: DT_INT32
          tensor_shape {
            dim {
            }
          }
        }
      }
    }
  }
  node {
    name: "gradients_1/Mean_2_grad/Const_2"
    op: "Const"
    attr {
      key: "_output_shapes"
      value {
        list {
          shape {
            dim {
              size: 1
            }
          }
        }
      }
    }
    attr {
      key: "dtype"
      value {
        type: DT_INT32
      }
    }
    attr {
      key: "value"
      value {
        tensor {
          dtype: DT_INT32
          tensor_shape {
            dim {
              size: 1
            }
          }
          int_val: 0
        }
      }
    }
  }
  node {
    name: "gradients_1/Mean_2_grad/Prod_2"
    op: "Prod"
    input: "gradients_1/Mean_2_grad/Shape_1_1"
    input: "gradients_1/Mean_2_grad/Const_2"
    attr {
      key: "T"
      value {
        type: DT_INT32
      }
    }
    attr {
      key: "Tidx"
      value {
        type: DT_INT32
      }
    }
    attr {
      key: "_output_shapes"
      value {
        list {
          shape {
          }
        }
      }
    }
    attr {
      key: "keep_dims"
      value {
        b: false
      }
    }
  }
  node {
    name: "gradients_1/Mean_2_grad/Const_1_1"
    op: "Const"
    attr {
      key: "_output_shapes"
      value {
        list {
          shape {
            dim {
              size: 1
            }
          }
        }
      }
    }
    attr {
      key: "dtype"
      value {
        type: DT_INT32
      }
    }
    attr {
      key: "value"
      value {
        tensor {
          dtype: DT_INT32
          tensor_shape {
            dim {
              size: 1
            }
          }
          int_val: 0
        }
      }
    }
  }
  node {
    name: "gradients_1/Mean_2_grad/Prod_1_1"
    op: "Prod"
    input: "gradients_1/Mean_2_grad/Shape_2_1"
    input: "gradients_1/Mean_2_grad/Const_1_1"
    attr {
      key: "T"
      value {
        type: DT_INT32
      }
    }
    attr {
      key: "Tidx"
      value {
        type: DT_INT32
      }
    }
    attr {
      key: "_output_shapes"
      value {
        list {
          shape {
          }
        }
      }
    }
    attr {
      key: "keep_dims"
      value {
        b: false
      }
    }
  }
  node {
    name: "gradients_1/Mean_2_grad/Maximum/y_1"
    op: "Const"
    attr {
      key: "_output_shapes"
      value {
        list {
          shape {
          }
        }
      }
    }
    attr {
      key: "dtype"
      value {
        type: DT_INT32
      }
    }
    attr {
      key: "value"
      value {
        tensor {
          dtype: DT_INT32
          tensor_shape {
          }
          int_val: 1
        }
      }
    }
  }
  node {
    name: "gradients_1/Mean_2_grad/Maximum_1"
    op: "Maximum"
    input: "gradients_1/Mean_2_grad/Prod_1_1"
    input: "gradients_1/Mean_2_grad/Maximum/y_1"
    attr {
      key: "T"
      value {
        type: DT_INT32
      }
    }
    attr {
      key: "_output_shapes"
      value {
        list {
          shape {
          }
        }
      }
    }
  }
  node {
    name: "gradients_1/Mean_2_grad/floordiv_1"
    op: "FloorDiv"
    input: "gradients_1/Mean_2_grad/Prod_2"
    input: "gradients_1/Mean_2_grad/Maximum_1"
    attr {
      key: "T"
      value {
        type: DT_INT32
      }
    }
    attr {
      key: "_output_shapes"
      value {
        list {
          shape {
          }
        }
      }
    }
  }
  node {
    name: "gradients_1/Mean_2_grad/Cast_1"
    op: "Cast"
    input: "gradients_1/Mean_2_grad/floordiv_1"
    attr {
      key: "DstT"
      value {
        type: DT_FLOAT
      }
    }
    attr {
      key: "SrcT"
      value {
        type: DT_INT32
      }
    }
    attr {
      key: "_output_shapes"
      value {
        list {
          shape {
          }
        }
      }
    }
  }
  node {
    name: "gradients_1/Mean_2_grad/truediv_1"
    op: "RealDiv"
    input: "gradients_1/Mean_2_grad/Tile_1"
    input: "gradients_1/Mean_2_grad/Cast_1"
    attr {
      key: "T"
      value {
        type: DT_FLOAT
      }
    }
    attr {
      key: "_output_shapes"
      value {
        list {
          shape {
            dim {
              size: -1
            }
          }
        }
      }
    }
  }
  node {
    name: "gradients_1/Reshape_5_grad/Shape_1"
    op: "Shape"
    input: "SoftmaxCrossEntropyWithLogits_1_1"
    attr {
      key: "T"
      value {
        type: DT_FLOAT
      }
    }
    attr {
      key: "_output_shapes"
      value {
        list {
          shape {
            dim {
              size: 1
            }
          }
        }
      }
    }
    attr {
      key: "out_type"
      value {
        type: DT_INT32
      }
    }
  }
  node {
    name: "gradients_1/Reshape_5_grad/Reshape_1"
    op: "Reshape"
    input: "gradients_1/Mean_2_grad/truediv_1"
    input: "gradients_1/Reshape_5_grad/Shape_1"
    attr {
      key: "T"
      value {
        type: DT_FLOAT
      }
    }
    attr {
      key: "Tshape"
      value {
        type: DT_INT32
      }
    }
    attr {
      key: "_output_shapes"
      value {
        list {
          shape {
            dim {
              size: -1
            }
          }
        }
      }
    }
  }
  node {
    name: "gradients_1/zeros_like_1"
    op: "ZerosLike"
    input: "SoftmaxCrossEntropyWithLogits_1_1:1"
    attr {
      key: "T"
      value {
        type: DT_FLOAT
      }
    }
    attr {
      key: "_output_shapes"
      value {
        list {
          shape {
            dim {
              size: -1
            }
            dim {
              size: -1
            }
          }
        }
      }
    }
  }
  node {
    name: "gradients_1/SoftmaxCrossEntropyWithLogits_1_grad/PreventGradient_1"
    op: "PreventGradient"
    input: "SoftmaxCrossEntropyWithLogits_1_1:1"
    attr {
      key: "T"
      value {
        type: DT_FLOAT
      }
    }
    attr {
      key: "_output_shapes"
      value {
        list {
          shape {
            dim {
              size: -1
            }
            dim {
              size: -1
            }
          }
        }
      }
    }
  }
  node {
    name: "gradients_1/SoftmaxCrossEntropyWithLogits_1_grad/ExpandDims/dim_1"
    op: "Const"
    attr {
      key: "_output_shapes"
      value {
        list {
          shape {
          }
        }
      }
    }
    attr {
      key: "dtype"
      value {
        type: DT_INT32
      }
    }
    attr {
      key: "value"
      value {
        tensor {
          dtype: DT_INT32
          tensor_shape {
          }
          int_val: -1
        }
      }
    }
  }
  node {
    name: "gradients_1/SoftmaxCrossEntropyWithLogits_1_grad/ExpandDims_1"
    op: "ExpandDims"
    input: "gradients_1/Reshape_5_grad/Reshape_1"
    input: "gradients_1/SoftmaxCrossEntropyWithLogits_1_grad/ExpandDims/dim_1"
    attr {
      key: "T"
      value {
        type: DT_FLOAT
      }
    }
    attr {
      key: "Tdim"
      value {
        type: DT_INT32
      }
    }
    attr {
      key: "_output_shapes"
      value {
        list {
          shape {
            dim {
              size: -1
            }
            dim {
              size: 1
            }
          }
        }
      }
    }
  }
  node {
    name: "gradients_1/SoftmaxCrossEntropyWithLogits_1_grad/mul_1"
    op: "Mul"
    input: "gradients_1/SoftmaxCrossEntropyWithLogits_1_grad/ExpandDims_1"
    input: "gradients_1/SoftmaxCrossEntropyWithLogits_1_grad/PreventGradient_1"
    attr {
      key: "T"
      value {
        type: DT_FLOAT
      }
    }
    attr {
      key: "_output_shapes"
      value {
        list {
          shape {
            dim {
              size: -1
            }
            dim {
              size: -1
            }
          }
        }
      }
    }
  }
  node {
    name: "gradients_1/Reshape_3_grad/Shape_1"
    op: "Shape"
    input: "add_1_1"
    attr {
      key: "T"
      value {
        type: DT_FLOAT
      }
    }
    attr {
      key: "_output_shapes"
      value {
        list {
          shape {
            dim {
              size: 2
            }
          }
        }
      }
    }
    attr {
      key: "out_type"
      value {
        type: DT_INT32
      }
    }
  }
  node {
    name: "gradients_1/Reshape_3_grad/Reshape_1"
    op: "Reshape"
    input: "gradients_1/SoftmaxCrossEntropyWithLogits_1_grad/mul_1"
    input: "gradients_1/Reshape_3_grad/Shape_1"
    attr {
      key: "T"
      value {
        type: DT_FLOAT
      }
    }
    attr {
      key: "Tshape"
      value {
        type: DT_INT32
      }
    }
    attr {
      key: "_output_shapes"
      value {
        list {
          shape {
            dim {
              size: -1
            }
            dim {
              size: 10
            }
          }
        }
      }
    }
  }
  node {
    name: "gradients_1/add_1_grad/Shape_2"
    op: "Shape"
    input: "MatMul_1_1"
    attr {
      key: "T"
      value {
        type: DT_FLOAT
      }
    }
    attr {
      key: "_output_shapes"
      value {
        list {
          shape {
            dim {
              size: 2
            }
          }
        }
      }
    }
    attr {
      key: "out_type"
      value {
        type: DT_INT32
      }
    }
  }
  node {
    name: "gradients_1/add_1_grad/Shape_1_1"
    op: "Const"
    attr {
      key: "_output_shapes"
      value {
        list {
          shape {
            dim {
              size: 1
            }
          }
        }
      }
    }
    attr {
      key: "dtype"
      value {
        type: DT_INT32
      }
    }
    attr {
      key: "value"
      value {
        tensor {
          dtype: DT_INT32
          tensor_shape {
            dim {
              size: 1
            }
          }
          int_val: 10
        }
      }
    }
  }
  node {
    name: "gradients_1/add_1_grad/BroadcastGradientArgs_1"
    op: "BroadcastGradientArgs"
    input: "gradients_1/add_1_grad/Shape_2"
    input: "gradients_1/add_1_grad/Shape_1_1"
    attr {
      key: "T"
      value {
        type: DT_INT32
      }
    }
    attr {
      key: "_output_shapes"
      value {
        list {
          shape {
            dim {
              size: -1
            }
          }
          shape {
            dim {
              size: -1
            }
          }
        }
      }
    }
  }
  node {
    name: "gradients_1/add_1_grad/Sum_2"
    op: "Sum"
    input: "gradients_1/Reshape_3_grad/Reshape_1"
    input: "gradients_1/add_1_grad/BroadcastGradientArgs_1"
    attr {
      key: "T"
      value {
        type: DT_FLOAT
      }
    }
    attr {
      key: "Tidx"
      value {
        type: DT_INT32
      }
    }
    attr {
      key: "_output_shapes"
      value {
        list {
          shape {
            unknown_rank: true
          }
        }
      }
    }
    attr {
      key: "keep_dims"
      value {
        b: false
      }
    }
  }
  node {
    name: "gradients_1/add_1_grad/Reshape_2"
    op: "Reshape"
    input: "gradients_1/add_1_grad/Sum_2"
    input: "gradients_1/add_1_grad/Shape_2"
    attr {
      key: "T"
      value {
        type: DT_FLOAT
      }
    }
    attr {
      key: "Tshape"
      value {
        type: DT_INT32
      }
    }
    attr {
      key: "_output_shapes"
      value {
        list {
          shape {
            dim {
              size: -1
            }
            dim {
              size: 10
            }
          }
        }
      }
    }
  }
  node {
    name: "gradients_1/add_1_grad/Sum_1_1"
    op: "Sum"
    input: "gradients_1/Reshape_3_grad/Reshape_1"
    input: "gradients_1/add_1_grad/BroadcastGradientArgs_1:1"
    attr {
      key: "T"
      value {
        type: DT_FLOAT
      }
    }
    attr {
      key: "Tidx"
      value {
        type: DT_INT32
      }
    }
    attr {
      key: "_output_shapes"
      value {
        list {
          shape {
            unknown_rank: true
          }
        }
      }
    }
    attr {
      key: "keep_dims"
      value {
        b: false
      }
    }
  }
  node {
    name: "gradients_1/add_1_grad/Reshape_1_1"
    op: "Reshape"
    input: "gradients_1/add_1_grad/Sum_1_1"
    input: "gradients_1/add_1_grad/Shape_1_1"
    attr {
      key: "T"
      value {
        type: DT_FLOAT
      }
    }
    attr {
      key: "Tshape"
      value {
        type: DT_INT32
      }
    }
    attr {
      key: "_output_shapes"
      value {
        list {
          shape {
            dim {
              size: 10
            }
          }
        }
      }
    }
  }
  node {
    name: "gradients_1/add_1_grad/tuple/group_deps_1"
    op: "NoOp"
    input: "^gradients_1/add_1_grad/Reshape_2"
    input: "^gradients_1/add_1_grad/Reshape_1_1"
  }
  node {
    name: "gradients_1/add_1_grad/tuple/control_dependency_2"
    op: "Identity"
    input: "gradients_1/add_1_grad/Reshape_2"
    input: "^gradients_1/add_1_grad/tuple/group_deps_1"
    attr {
      key: "T"
      value {
        type: DT_FLOAT
      }
    }
    attr {
      key: "_class"
      value {
        list {
          s: "loc:@gradients_1/add_1_grad/Reshape_2"
        }
      }
    }
    attr {
      key: "_output_shapes"
      value {
        list {
          shape {
            dim {
              size: -1
            }
            dim {
              size: 10
            }
          }
        }
      }
    }
  }
  node {
    name: "gradients_1/add_1_grad/tuple/control_dependency_1_1"
    op: "Identity"
    input: "gradients_1/add_1_grad/Reshape_1_1"
    input: "^gradients_1/add_1_grad/tuple/group_deps_1"
    attr {
      key: "T"
      value {
        type: DT_FLOAT
      }
    }
    attr {
      key: "_class"
      value {
        list {
          s: "loc:@gradients_1/add_1_grad/Reshape_1_1"
        }
      }
    }
    attr {
      key: "_output_shapes"
      value {
        list {
          shape {
            dim {
              size: 10
            }
          }
        }
      }
    }
  }
  node {
    name: "gradients_1/MatMul_1_grad/MatMul_2"
    op: "MatMul"
    input: "gradients_1/add_1_grad/tuple/control_dependency_2"
    input: "Variable_2/read_1"
    attr {
      key: "T"
      value {
        type: DT_FLOAT
      }
    }
    attr {
      key: "_output_shapes"
      value {
        list {
          shape {
            dim {
              size: -1
            }
            dim {
              size: 784
            }
          }
        }
      }
    }
    attr {
      key: "transpose_a"
      value {
        b: false
      }
    }
    attr {
      key: "transpose_b"
      value {
        b: true
      }
    }
  }
  node {
    name: "gradients_1/MatMul_1_grad/MatMul_1_1"
    op: "MatMul"
    input: "Placeholder_2_1"
    input: "gradients_1/add_1_grad/tuple/control_dependency_2"
    attr {
      key: "T"
      value {
        type: DT_FLOAT
      }
    }
    attr {
      key: "_output_shapes"
      value {
        list {
          shape {
            dim {
              size: 784
            }
            dim {
              size: 10
            }
          }
        }
      }
    }
    attr {
      key: "transpose_a"
      value {
        b: true
      }
    }
    attr {
      key: "transpose_b"
      value {
        b: false
      }
    }
  }
  node {
    name: "gradients_1/MatMul_1_grad/tuple/group_deps_1"
    op: "NoOp"
    input: "^gradients_1/MatMul_1_grad/MatMul_2"
    input: "^gradients_1/MatMul_1_grad/MatMul_1_1"
  }
  node {
    name: "gradients_1/MatMul_1_grad/tuple/control_dependency_2"
    op: "Identity"
    input: "gradients_1/MatMul_1_grad/MatMul_2"
    input: "^gradients_1/MatMul_1_grad/tuple/group_deps_1"
    attr {
      key: "T"
      value {
        type: DT_FLOAT
      }
    }
    attr {
      key: "_class"
      value {
        list {
          s: "loc:@gradients_1/MatMul_1_grad/MatMul_2"
        }
      }
    }
    attr {
      key: "_output_shapes"
      value {
        list {
          shape {
            dim {
              size: -1
            }
            dim {
              size: 784
            }
          }
        }
      }
    }
  }
  node {
    name: "gradients_1/MatMul_1_grad/tuple/control_dependency_1_1"
    op: "Identity"
    input: "gradients_1/MatMul_1_grad/MatMul_1_1"
    input: "^gradients_1/MatMul_1_grad/tuple/group_deps_1"
    attr {
      key: "T"
      value {
        type: DT_FLOAT
      }
    }
    attr {
      key: "_class"
      value {
        list {
          s: "loc:@gradients_1/MatMul_1_grad/MatMul_1_1"
        }
      }
    }
    attr {
      key: "_output_shapes"
      value {
        list {
          shape {
            dim {
              size: 784
            }
            dim {
              size: 10
            }
          }
        }
      }
    }
  }
  node {
    name: "GradientDescent_1/learning_rate_1"
    op: "Const"
    attr {
      key: "_output_shapes"
      value {
        list {
          shape {
          }
        }
      }
    }
    attr {
      key: "dtype"
      value {
        type: DT_FLOAT
      }
    }
    attr {
      key: "value"
      value {
        tensor {
          dtype: DT_FLOAT
          tensor_shape {
          }
          float_val: 0.5
        }
      }
    }
  }
  node {
    name: "GradientDescent_1/update_Variable_2/ApplyGradientDescent_1"
    op: "ApplyGradientDescent"
    input: "Variable_2_1"
    input: "GradientDescent_1/learning_rate_1"
    input: "gradients_1/MatMul_1_grad/tuple/control_dependency_1_1"
    attr {
      key: "T"
      value {
        type: DT_FLOAT
      }
    }
    attr {
      key: "_class"
      value {
        list {
          s: "loc:@Variable_2_1"
        }
      }
    }
    attr {
      key: "_output_shapes"
      value {
        list {
          shape {
            dim {
              size: 784
            }
            dim {
              size: 10
            }
          }
        }
      }
    }
    attr {
      key: "use_locking"
      value {
        b: false
      }
    }
  }
  node {
    name: "GradientDescent_1/update_Variable_3/ApplyGradientDescent_1"
    op: "ApplyGradientDescent"
    input: "Variable_3_1"
    input: "GradientDescent_1/learning_rate_1"
    input: "gradients_1/add_1_grad/tuple/control_dependency_1_1"
    attr {
      key: "T"
      value {
        type: DT_FLOAT
      }
    }
    attr {
      key: "_class"
      value {
        list {
          s: "loc:@Variable_3_1"
        }
      }
    }
    attr {
      key: "_output_shapes"
      value {
        list {
          shape {
            dim {
              size: 10
            }
          }
        }
      }
    }
    attr {
      key: "use_locking"
      value {
        b: false
      }
    }
  }
  node {
    name: "GradientDescent_1_1"
    op: "NoOp"
    input: "^GradientDescent_1/update_Variable_2/ApplyGradientDescent_1"
    input: "^GradientDescent_1/update_Variable_3/ApplyGradientDescent_1"
  }
  node {
    name: "save/Const_1"
    op: "Const"
    attr {
      key: "_output_shapes"
      value {
        list {
          shape {
          }
        }
      }
    }
    attr {
      key: "dtype"
      value {
        type: DT_STRING
      }
    }
    attr {
      key: "value"
      value {
        tensor {
          dtype: DT_STRING
          tensor_shape {
          }
          string_val: "model"
        }
      }
    }
  }
  node {
    name: "save/SaveV2/tensor_names_1"
    op: "Const"
    attr {
      key: "_output_shapes"
      value {
        list {
          shape {
            dim {
              size: 4
            }
          }
        }
      }
    }
    attr {
      key: "dtype"
      value {
        type: DT_STRING
      }
    }
    attr {
      key: "value"
      value {
        tensor {
          dtype: DT_STRING
          tensor_shape {
            dim {
              size: 4
            }
          }
          string_val: "Variable"
          string_val: "Variable_1"
          string_val: "Variable_2"
          string_val: "Variable_3"
        }
      }
    }
  }
  node {
    name: "save/SaveV2/shape_and_slices_1"
    op: "Const"
    attr {
      key: "_output_shapes"
      value {
        list {
          shape {
            dim {
              size: 4
            }
          }
        }
      }
    }
    attr {
      key: "dtype"
      value {
        type: DT_STRING
      }
    }
    attr {
      key: "value"
      value {
        tensor {
          dtype: DT_STRING
          tensor_shape {
            dim {
              size: 4
            }
          }
          string_val: ""
          string_val: ""
          string_val: ""
          string_val: ""
        }
      }
    }
  }
  node {
    name: "save/SaveV2_1"
    op: "SaveV2"
    input: "save/Const_1"
    input: "save/SaveV2/tensor_names_1"
    input: "save/SaveV2/shape_and_slices_1"
    input: "Variable_4"
    input: "Variable_1_1"
    input: "Variable_2_1"
    input: "Variable_3_1"
    attr {
      key: "dtypes"
      value {
        list {
          type: DT_FLOAT
          type: DT_FLOAT
          type: DT_FLOAT
          type: DT_FLOAT
        }
      }
    }
  }
  node {
    name: "save/control_dependency_1"
    op: "Identity"
    input: "save/Const_1"
    input: "^save/SaveV2_1"
    attr {
      key: "T"
      value {
        type: DT_STRING
      }
    }
    attr {
      key: "_class"
      value {
        list {
          s: "loc:@save/Const_1"
        }
      }
    }
    attr {
      key: "_output_shapes"
      value {
        list {
          shape {
          }
        }
      }
    }
  }
  node {
    name: "save/RestoreV2/tensor_names_1"
    op: "Const"
    attr {
      key: "_output_shapes"
      value {
        list {
          shape {
            dim {
              size: 1
            }
          }
        }
      }
    }
    attr {
      key: "dtype"
      value {
        type: DT_STRING
      }
    }
    attr {
      key: "value"
      value {
        tensor {
          dtype: DT_STRING
          tensor_shape {
            dim {
              size: 1
            }
          }
          string_val: "Variable"
        }
      }
    }
  }
  node {
    name: "save/RestoreV2/shape_and_slices_1"
    op: "Const"
    attr {
      key: "_output_shapes"
      value {
        list {
          shape {
            dim {
              size: 1
            }
          }
        }
      }
    }
    attr {
      key: "dtype"
      value {
        type: DT_STRING
      }
    }
    attr {
      key: "value"
      value {
        tensor {
          dtype: DT_STRING
          tensor_shape {
            dim {
              size: 1
            }
          }
          string_val: ""
        }
      }
    }
  }
  node {
    name: "save/RestoreV2_4"
    op: "RestoreV2"
    input: "save/Const_1"
    input: "save/RestoreV2/tensor_names_1"
    input: "save/RestoreV2/shape_and_slices_1"
    attr {
      key: "_output_shapes"
      value {
        list {
          shape {
            unknown_rank: true
          }
        }
      }
    }
    attr {
      key: "dtypes"
      value {
        list {
          type: DT_FLOAT
        }
      }
    }
  }
  node {
    name: "save/Assign_4"
    op: "Assign"
    input: "Variable_4"
    input: "save/RestoreV2_4"
    attr {
      key: "T"
      value {
        type: DT_FLOAT
      }
    }
    attr {
      key: "_class"
      value {
        list {
          s: "loc:@Variable_4"
        }
      }
    }
    attr {
      key: "_output_shapes"
      value {
        list {
          shape {
            dim {
              size: 784
            }
            dim {
              size: 10
            }
          }
        }
      }
    }
    attr {
      key: "use_locking"
      value {
        b: true
      }
    }
    attr {
      key: "validate_shape"
      value {
        b: true
      }
    }
  }
  node {
    name: "save/RestoreV2_1/tensor_names_1"
    op: "Const"
    attr {
      key: "_output_shapes"
      value {
        list {
          shape {
            dim {
              size: 1
            }
          }
        }
      }
    }
    attr {
      key: "dtype"
      value {
        type: DT_STRING
      }
    }
    attr {
      key: "value"
      value {
        tensor {
          dtype: DT_STRING
          tensor_shape {
            dim {
              size: 1
            }
          }
          string_val: "Variable_1"
        }
      }
    }
  }
  node {
    name: "save/RestoreV2_1/shape_and_slices_1"
    op: "Const"
    attr {
      key: "_output_shapes"
      value {
        list {
          shape {
            dim {
              size: 1
            }
          }
        }
      }
    }
    attr {
      key: "dtype"
      value {
        type: DT_STRING
      }
    }
    attr {
      key: "value"
      value {
        tensor {
          dtype: DT_STRING
          tensor_shape {
            dim {
              size: 1
            }
          }
          string_val: ""
        }
      }
    }
  }
  node {
    name: "save/RestoreV2_1_1"
    op: "RestoreV2"
    input: "save/Const_1"
    input: "save/RestoreV2_1/tensor_names_1"
    input: "save/RestoreV2_1/shape_and_slices_1"
    attr {
      key: "_output_shapes"
      value {
        list {
          shape {
            unknown_rank: true
          }
        }
      }
    }
    attr {
      key: "dtypes"
      value {
        list {
          type: DT_FLOAT
        }
      }
    }
  }
  node {
    name: "save/Assign_1_1"
    op: "Assign"
    input: "Variable_1_1"
    input: "save/RestoreV2_1_1"
    attr {
      key: "T"
      value {
        type: DT_FLOAT
      }
    }
    attr {
      key: "_class"
      value {
        list {
          s: "loc:@Variable_1_1"
        }
      }
    }
    attr {
      key: "_output_shapes"
      value {
        list {
          shape {
            dim {
              size: 10
            }
          }
        }
      }
    }
    attr {
      key: "use_locking"
      value {
        b: true
      }
    }
    attr {
      key: "validate_shape"
      value {
        b: true
      }
    }
  }
  node {
    name: "save/RestoreV2_2/tensor_names_1"
    op: "Const"
    attr {
      key: "_output_shapes"
      value {
        list {
          shape {
            dim {
              size: 1
            }
          }
        }
      }
    }
    attr {
      key: "dtype"
      value {
        type: DT_STRING
      }
    }
    attr {
      key: "value"
      value {
        tensor {
          dtype: DT_STRING
          tensor_shape {
            dim {
              size: 1
            }
          }
          string_val: "Variable_2"
        }
      }
    }
  }
  node {
    name: "save/RestoreV2_2/shape_and_slices_1"
    op: "Const"
    attr {
      key: "_output_shapes"
      value {
        list {
          shape {
            dim {
              size: 1
            }
          }
        }
      }
    }
    attr {
      key: "dtype"
      value {
        type: DT_STRING
      }
    }
    attr {
      key: "value"
      value {
        tensor {
          dtype: DT_STRING
          tensor_shape {
            dim {
              size: 1
            }
          }
          string_val: ""
        }
      }
    }
  }
  node {
    name: "save/RestoreV2_2_1"
    op: "RestoreV2"
    input: "save/Const_1"
    input: "save/RestoreV2_2/tensor_names_1"
    input: "save/RestoreV2_2/shape_and_slices_1"
    attr {
      key: "_output_shapes"
      value {
        list {
          shape {
            unknown_rank: true
          }
        }
      }
    }
    attr {
      key: "dtypes"
      value {
        list {
          type: DT_FLOAT
        }
      }
    }
  }
  node {
    name: "save/Assign_2_1"
    op: "Assign"
    input: "Variable_2_1"
    input: "save/RestoreV2_2_1"
    attr {
      key: "T"
      value {
        type: DT_FLOAT
      }
    }
    attr {
      key: "_class"
      value {
        list {
          s: "loc:@Variable_2_1"
        }
      }
    }
    attr {
      key: "_output_shapes"
      value {
        list {
          shape {
            dim {
              size: 784
            }
            dim {
              size: 10
            }
          }
        }
      }
    }
    attr {
      key: "use_locking"
      value {
        b: true
      }
    }
    attr {
      key: "validate_shape"
      value {
        b: true
      }
    }
  }
  node {
    name: "save/RestoreV2_3/tensor_names_1"
    op: "Const"
    attr {
      key: "_output_shapes"
      value {
        list {
          shape {
            dim {
              size: 1
            }
          }
        }
      }
    }
    attr {
      key: "dtype"
      value {
        type: DT_STRING
      }
    }
    attr {
      key: "value"
      value {
        tensor {
          dtype: DT_STRING
          tensor_shape {
            dim {
              size: 1
            }
          }
          string_val: "Variable_3"
        }
      }
    }
  }
  node {
    name: "save/RestoreV2_3/shape_and_slices_1"
    op: "Const"
    attr {
      key: "_output_shapes"
      value {
        list {
          shape {
            dim {
              size: 1
            }
          }
        }
      }
    }
    attr {
      key: "dtype"
      value {
        type: DT_STRING
      }
    }
    attr {
      key: "value"
      value {
        tensor {
          dtype: DT_STRING
          tensor_shape {
            dim {
              size: 1
            }
          }
          string_val: ""
        }
      }
    }
  }
  node {
    name: "save/RestoreV2_3_1"
    op: "RestoreV2"
    input: "save/Const_1"
    input: "save/RestoreV2_3/tensor_names_1"
    input: "save/RestoreV2_3/shape_and_slices_1"
    attr {
      key: "_output_shapes"
      value {
        list {
          shape {
            unknown_rank: true
          }
        }
      }
    }
    attr {
      key: "dtypes"
      value {
        list {
          type: DT_FLOAT
        }
      }
    }
  }
  node {
    name: "save/Assign_3_1"
    op: "Assign"
    input: "Variable_3_1"
    input: "save/RestoreV2_3_1"
    attr {
      key: "T"
      value {
        type: DT_FLOAT
      }
    }
    attr {
      key: "_class"
      value {
        list {
          s: "loc:@Variable_3_1"
        }
      }
    }
    attr {
      key: "_output_shapes"
      value {
        list {
          shape {
            dim {
              size: 10
            }
          }
        }
      }
    }
    attr {
      key: "use_locking"
      value {
        b: true
      }
    }
    attr {
      key: "validate_shape"
      value {
        b: true
      }
    }
  }
  node {
    name: "save/restore_all_1"
    op: "NoOp"
    input: "^save/Assign_4"
    input: "^save/Assign_1_1"
    input: "^save/Assign_2_1"
    input: "^save/Assign_3_1"
  }
  node {
    name: "init_1_1"
    op: "NoOp"
    input: "^Variable/Assign_1"
    input: "^Variable_1/Assign_1"
    input: "^Variable_2/Assign_1"
    input: "^Variable_3/Assign_1"
  }
  versions {
    producer: 21
  }
}
saver_def {
  filename_tensor_name: "save/Const:0"
  save_tensor_name: "save/control_dependency:0"
  restore_op_name: "save/restore_all"
  max_to_keep: 5
  keep_checkpoint_every_n_hours: 10000.0
  version: V2
}
collection_def {
  key: "train_op"
  value {
    node_list {
      value: "GradientDescent"
      value: "GradientDescent_1"
      value: "GradientDescent"
      value: "GradientDescent_1"
    }
  }
}
collection_def {
  key: "trainable_variables"
  value {
    bytes_list {
      value: "\n\nVariable:0\022\017Variable/Assign\032\017Variable/read:0"
      value: "\n\014Variable_1:0\022\021Variable_1/Assign\032\021Variable_1/read:0"
      value: "\n\014Variable_2:0\022\021Variable_2/Assign\032\021Variable_2/read:0"
      value: "\n\014Variable_3:0\022\021Variable_3/Assign\032\021Variable_3/read:0"
      value: "\n\nVariable:0\022\017Variable/Assign\032\017Variable/read:0"
      value: "\n\014Variable_1:0\022\021Variable_1/Assign\032\021Variable_1/read:0"
      value: "\n\014Variable_2:0\022\021Variable_2/Assign\032\021Variable_2/read:0"
      value: "\n\014Variable_3:0\022\021Variable_3/Assign\032\021Variable_3/read:0"
    }
  }
}
collection_def {
  key: "variables"
  value {
    bytes_list {
      value: "\n\nVariable:0\022\017Variable/Assign\032\017Variable/read:0"
      value: "\n\014Variable_1:0\022\021Variable_1/Assign\032\021Variable_1/read:0"
      value: "\n\014Variable_2:0\022\021Variable_2/Assign\032\021Variable_2/read:0"
      value: "\n\014Variable_3:0\022\021Variable_3/Assign\032\021Variable_3/read:0"
      value: "\n\nVariable:0\022\017Variable/Assign\032\017Variable/read:0"
      value: "\n\014Variable_1:0\022\021Variable_1/Assign\032\021Variable_1/read:0"
      value: "\n\014Variable_2:0\022\021Variable_2/Assign\032\021Variable_2/read:0"
      value: "\n\014Variable_3:0\022\021Variable_3/Assign\032\021Variable_3/read:0"
    }
  }
}
